{
  "format": "graph-model",
  "generatedBy": "2.4.1",
  "convertedBy": "TensorFlow.js Converter v3.2.0",
  "signature": {
    "inputs": {
      "input_1:0": {
        "name": "input_1:0",
        "dtype": "DT_FLOAT",
        "tensorShape": {
          "dim": [
            { "size": "1" },
            { "size": "1" },
            { "size": "128" },
            { "size": "624" }
          ]
        }
      }
    },
    "outputs": {
      "Identity:0": {
        "name": "Identity:0",
        "dtype": "DT_FLOAT",
        "tensorShape": { "dim": [{ "size": "1" }, { "size": "60" }] }
      }
    }
  },
  "modelTopology": {
    "node": [
      {
        "name": "ConstantFolding/PartitionedCall/onnx_tf_prefix_Div_374_recip",
        "op": "Const",
        "attr": {
          "value": { "tensor": { "dtype": "DT_FLOAT", "tensorShape": {} } },
          "dtype": { "type": "DT_FLOAT" }
        }
      },
      {
        "name": "ConstantFolding/PartitionedCall/onnx_tf_prefix_Div_341_recip",
        "op": "Const",
        "attr": {
          "dtype": { "type": "DT_FLOAT" },
          "value": { "tensor": { "dtype": "DT_FLOAT", "tensorShape": {} } }
        }
      },
      {
        "name": "PartitionedCall/transpose_83/perm",
        "op": "Const",
        "attr": {
          "dtype": { "type": "DT_INT32" },
          "value": {
            "tensor": {
              "dtype": "DT_INT32",
              "tensorShape": { "dim": [{ "size": "4" }] }
            }
          }
        }
      },
      {
        "name": "ConstantFolding/PartitionedCall/onnx_tf_prefix_Div_332_recip",
        "op": "Const",
        "attr": {
          "dtype": { "type": "DT_FLOAT" },
          "value": { "tensor": { "dtype": "DT_FLOAT", "tensorShape": {} } }
        }
      },
      {
        "name": "ConstantFolding/PartitionedCall/onnx_tf_prefix_Div_299_recip",
        "op": "Const",
        "attr": {
          "dtype": { "type": "DT_FLOAT" },
          "value": { "tensor": { "dtype": "DT_FLOAT", "tensorShape": {} } }
        }
      },
      {
        "name": "ConstantFolding/PartitionedCall/onnx_tf_prefix_Div_291_recip",
        "op": "Const",
        "attr": {
          "value": { "tensor": { "dtype": "DT_FLOAT", "tensorShape": {} } },
          "dtype": { "type": "DT_FLOAT" }
        }
      },
      {
        "name": "ConstantFolding/PartitionedCall/onnx_tf_prefix_Div_258_recip",
        "op": "Const",
        "attr": {
          "value": { "tensor": { "dtype": "DT_FLOAT", "tensorShape": {} } },
          "dtype": { "type": "DT_FLOAT" }
        }
      },
      {
        "name": "PartitionedCall/transpose_65/perm",
        "op": "Const",
        "attr": {
          "dtype": { "type": "DT_INT32" },
          "value": {
            "tensor": {
              "dtype": "DT_INT32",
              "tensorShape": { "dim": [{ "size": "4" }] }
            }
          }
        }
      },
      {
        "name": "ConstantFolding/PartitionedCall/onnx_tf_prefix_Div_249_recip",
        "op": "Const",
        "attr": {
          "value": { "tensor": { "dtype": "DT_FLOAT", "tensorShape": {} } },
          "dtype": { "type": "DT_FLOAT" }
        }
      },
      {
        "name": "ConstantFolding/PartitionedCall/onnx_tf_prefix_Div_216_recip",
        "op": "Const",
        "attr": {
          "value": { "tensor": { "dtype": "DT_FLOAT", "tensorShape": {} } },
          "dtype": { "type": "DT_FLOAT" }
        }
      },
      {
        "name": "ConstantFolding/PartitionedCall/onnx_tf_prefix_Div_208_recip",
        "op": "Const",
        "attr": {
          "dtype": { "type": "DT_FLOAT" },
          "value": { "tensor": { "dtype": "DT_FLOAT", "tensorShape": {} } }
        }
      },
      {
        "name": "ConstantFolding/PartitionedCall/onnx_tf_prefix_Div_175_recip",
        "op": "Const",
        "attr": {
          "value": { "tensor": { "dtype": "DT_FLOAT", "tensorShape": {} } },
          "dtype": { "type": "DT_FLOAT" }
        }
      },
      {
        "name": "ConstantFolding/PartitionedCall/onnx_tf_prefix_Div_166_recip",
        "op": "Const",
        "attr": {
          "dtype": { "type": "DT_FLOAT" },
          "value": { "tensor": { "dtype": "DT_FLOAT", "tensorShape": {} } }
        }
      },
      {
        "name": "ConstantFolding/PartitionedCall/onnx_tf_prefix_Div_133_recip",
        "op": "Const",
        "attr": {
          "dtype": { "type": "DT_FLOAT" },
          "value": { "tensor": { "dtype": "DT_FLOAT", "tensorShape": {} } }
        }
      },
      {
        "name": "PartitionedCall/transpose_38/perm",
        "op": "Const",
        "attr": {
          "dtype": { "type": "DT_INT32" },
          "value": {
            "tensor": {
              "dtype": "DT_INT32",
              "tensorShape": { "dim": [{ "size": "4" }] }
            }
          }
        }
      },
      {
        "name": "ConstantFolding/PartitionedCall/onnx_tf_prefix_Div_124_recip",
        "op": "Const",
        "attr": {
          "value": { "tensor": { "dtype": "DT_FLOAT", "tensorShape": {} } },
          "dtype": { "type": "DT_FLOAT" }
        }
      },
      {
        "name": "ConstantFolding/PartitionedCall/onnx_tf_prefix_Div_91_recip",
        "op": "Const",
        "attr": {
          "dtype": { "type": "DT_FLOAT" },
          "value": { "tensor": { "dtype": "DT_FLOAT", "tensorShape": {} } }
        }
      },
      {
        "name": "ConstantFolding/PartitionedCall/onnx_tf_prefix_Div_83_recip",
        "op": "Const",
        "attr": {
          "dtype": { "type": "DT_FLOAT" },
          "value": { "tensor": { "dtype": "DT_FLOAT", "tensorShape": {} } }
        }
      },
      {
        "name": "ConstantFolding/PartitionedCall/onnx_tf_prefix_Div_50_recip",
        "op": "Const",
        "attr": {
          "dtype": { "type": "DT_FLOAT" },
          "value": { "tensor": { "dtype": "DT_FLOAT", "tensorShape": {} } }
        }
      },
      {
        "name": "PartitionedCall/transpose_20/perm",
        "op": "Const",
        "attr": {
          "dtype": { "type": "DT_INT32" },
          "value": {
            "tensor": {
              "dtype": "DT_INT32",
              "tensorShape": { "dim": [{ "size": "4" }] }
            }
          }
        }
      },
      {
        "name": "PartitionedCall/Const",
        "op": "Const",
        "attr": {
          "value": {
            "tensor": {
              "dtype": "DT_INT32",
              "tensorShape": { "dim": [{ "size": "4" }, { "size": "2" }] }
            }
          },
          "dtype": { "type": "DT_INT32" }
        }
      },
      {
        "name": "PartitionedCall/transpose_1/perm",
        "op": "Const",
        "attr": {
          "value": {
            "tensor": {
              "dtype": "DT_INT32",
              "tensorShape": { "dim": [{ "size": "4" }] }
            }
          },
          "dtype": { "type": "DT_INT32" }
        }
      },
      {
        "name": "PartitionedCall/split",
        "op": "Const",
        "attr": {
          "value": {
            "tensor": {
              "dtype": "DT_FLOAT",
              "tensorShape": {
                "dim": [
                  { "size": "3" },
                  { "size": "3" },
                  { "size": "1" },
                  { "size": "16" }
                ]
              }
            }
          },
          "dtype": { "type": "DT_FLOAT" }
        }
      },
      {
        "name": "PartitionedCall/transpose_2/perm",
        "op": "Const",
        "attr": {
          "dtype": { "type": "DT_INT32" },
          "value": {
            "tensor": {
              "dtype": "DT_INT32",
              "tensorShape": { "dim": [{ "size": "4" }] }
            }
          }
        }
      },
      {
        "name": "PartitionedCall/transpose_4/perm",
        "op": "Const",
        "attr": {
          "dtype": { "type": "DT_INT32" },
          "value": {
            "tensor": {
              "dtype": "DT_INT32",
              "tensorShape": { "dim": [{ "size": "4" }] }
            }
          }
        }
      },
      {
        "name": "PartitionedCall/split_1",
        "op": "Const",
        "attr": {
          "dtype": { "type": "DT_FLOAT" },
          "value": {
            "tensor": {
              "dtype": "DT_FLOAT",
              "tensorShape": {
                "dim": [
                  { "size": "1" },
                  { "size": "1" },
                  { "size": "16" },
                  { "size": "16" }
                ]
              }
            }
          }
        }
      },
      {
        "name": "PartitionedCall/transpose_5/perm",
        "op": "Const",
        "attr": {
          "dtype": { "type": "DT_INT32" },
          "value": {
            "tensor": {
              "dtype": "DT_INT32",
              "tensorShape": { "dim": [{ "size": "4" }] }
            }
          }
        }
      },
      {
        "name": "PartitionedCall/Const_3",
        "op": "Const",
        "attr": {
          "value": {
            "tensor": {
              "dtype": "DT_INT32",
              "tensorShape": { "dim": [{ "size": "4" }, { "size": "2" }] }
            }
          },
          "dtype": { "type": "DT_INT32" }
        }
      },
      {
        "name": "PartitionedCall/transpose_7/perm",
        "op": "Const",
        "attr": {
          "dtype": { "type": "DT_INT32" },
          "value": {
            "tensor": {
              "dtype": "DT_INT32",
              "tensorShape": { "dim": [{ "size": "4" }] }
            }
          }
        }
      },
      {
        "name": "PartitionedCall/Reshape",
        "op": "Const",
        "attr": {
          "dtype": { "type": "DT_FLOAT" },
          "value": {
            "tensor": {
              "dtype": "DT_FLOAT",
              "tensorShape": {
                "dim": [
                  { "size": "3" },
                  { "size": "3" },
                  { "size": "16" },
                  { "size": "1" }
                ]
              }
            }
          }
        }
      },
      {
        "name": "PartitionedCall/transpose_8/perm",
        "op": "Const",
        "attr": {
          "value": {
            "tensor": {
              "dtype": "DT_INT32",
              "tensorShape": { "dim": [{ "size": "4" }] }
            }
          },
          "dtype": { "type": "DT_INT32" }
        }
      },
      {
        "name": "ConstantFolding/PartitionedCall/split_2-folded-1",
        "op": "Const",
        "attr": {
          "dtype": { "type": "DT_INT32" },
          "value": {
            "tensor": {
              "dtype": "DT_INT32",
              "tensorShape": { "dim": [{ "size": "2" }] }
            }
          }
        }
      },
      {
        "name": "PartitionedCall/onnx_tf_prefix_Concat_14",
        "op": "Const",
        "attr": {
          "value": {
            "tensor": {
              "dtype": "DT_INT64",
              "tensorShape": { "dim": [{ "size": "2" }] }
            }
          },
          "dtype": { "type": "DT_INT64" }
        }
      },
      {
        "name": "PartitionedCall/Where",
        "op": "Const",
        "attr": {
          "dtype": { "type": "DT_INT64" },
          "value": {
            "tensor": {
              "dtype": "DT_INT64",
              "tensorShape": { "dim": [{}, { "size": "1" }] }
            }
          }
        }
      },
      {
        "name": "PartitionedCall/Cast",
        "op": "Const",
        "attr": {
          "value": {
            "tensor": {
              "dtype": "DT_INT64",
              "tensorShape": { "dim": [{ "size": "1" }] }
            }
          },
          "dtype": { "type": "DT_INT64" }
        }
      },
      {
        "name": "PartitionedCall/GatherV2",
        "op": "Const",
        "attr": {
          "value": {
            "tensor": { "dtype": "DT_INT64", "tensorShape": { "dim": [{}] } }
          },
          "dtype": { "type": "DT_INT64" }
        }
      },
      {
        "name": "PartitionedCall/zeros",
        "op": "Const",
        "attr": {
          "dtype": { "type": "DT_INT64" },
          "value": { "tensor": { "dtype": "DT_INT64", "tensorShape": {} } }
        }
      },
      {
        "name": "unknown_5",
        "op": "Const",
        "attr": {
          "dtype": { "type": "DT_FLOAT" },
          "value": {
            "tensor": {
              "dtype": "DT_FLOAT",
              "tensorShape": { "dim": [{ "size": "16" }, { "size": "4" }] }
            }
          }
        }
      },
      {
        "name": "unknown_6",
        "op": "Const",
        "attr": {
          "value": {
            "tensor": {
              "dtype": "DT_FLOAT",
              "tensorShape": { "dim": [{ "size": "4" }, { "size": "16" }] }
            }
          },
          "dtype": { "type": "DT_FLOAT" }
        }
      },
      {
        "name": "PartitionedCall/onnx_tf_prefix_Constant_19",
        "op": "Const",
        "attr": {
          "value": { "tensor": { "dtype": "DT_FLOAT", "tensorShape": {} } },
          "dtype": { "type": "DT_FLOAT" }
        }
      },
      {
        "name": "PartitionedCall/clip_by_value/Minimum/y",
        "op": "Const",
        "attr": {
          "value": { "tensor": { "dtype": "DT_FLOAT", "tensorShape": {} } },
          "dtype": { "type": "DT_FLOAT" }
        }
      },
      {
        "name": "PartitionedCall/clip_by_value/y",
        "op": "Const",
        "attr": {
          "dtype": { "type": "DT_FLOAT" },
          "value": { "tensor": { "dtype": "DT_FLOAT", "tensorShape": {} } }
        }
      },
      {
        "name": "ConstantFolding/PartitionedCall/onnx_tf_prefix_Div_23_recip",
        "op": "Const",
        "attr": {
          "value": { "tensor": { "dtype": "DT_FLOAT", "tensorShape": {} } },
          "dtype": { "type": "DT_FLOAT" }
        }
      },
      {
        "name": "PartitionedCall/onnx_tf_prefix_Concat_26",
        "op": "Const",
        "attr": {
          "value": {
            "tensor": {
              "dtype": "DT_INT64",
              "tensorShape": { "dim": [{ "size": "4" }] }
            }
          },
          "dtype": { "type": "DT_INT64" }
        }
      },
      {
        "name": "PartitionedCall/Where_1",
        "op": "Const",
        "attr": {
          "dtype": { "type": "DT_INT64" },
          "value": {
            "tensor": {
              "dtype": "DT_INT64",
              "tensorShape": { "dim": [{}, { "size": "1" }] }
            }
          }
        }
      },
      {
        "name": "PartitionedCall/Cast_1",
        "op": "Const",
        "attr": {
          "value": {
            "tensor": {
              "dtype": "DT_INT64",
              "tensorShape": { "dim": [{ "size": "1" }] }
            }
          },
          "dtype": { "type": "DT_INT64" }
        }
      },
      {
        "name": "PartitionedCall/GatherV2_1",
        "op": "Const",
        "attr": {
          "dtype": { "type": "DT_INT64" },
          "value": {
            "tensor": { "dtype": "DT_INT64", "tensorShape": { "dim": [{}] } }
          }
        }
      },
      {
        "name": "PartitionedCall/zeros_1",
        "op": "Const",
        "attr": {
          "value": { "tensor": { "dtype": "DT_INT64", "tensorShape": {} } },
          "dtype": { "type": "DT_INT64" }
        }
      },
      {
        "name": "PartitionedCall/ones",
        "op": "Const",
        "attr": {
          "value": {
            "tensor": {
              "dtype": "DT_FLOAT",
              "tensorShape": {
                "dim": [
                  { "size": "1" },
                  { "size": "16" },
                  { "size": "32" },
                  { "size": "156" }
                ]
              }
            }
          },
          "dtype": { "type": "DT_FLOAT" }
        }
      },
      {
        "name": "PartitionedCall/transpose_10/perm",
        "op": "Const",
        "attr": {
          "dtype": { "type": "DT_INT32" },
          "value": {
            "tensor": {
              "dtype": "DT_INT32",
              "tensorShape": { "dim": [{ "size": "4" }] }
            }
          }
        }
      },
      {
        "name": "PartitionedCall/split_3",
        "op": "Const",
        "attr": {
          "value": {
            "tensor": {
              "dtype": "DT_FLOAT",
              "tensorShape": {
                "dim": [
                  { "size": "1" },
                  { "size": "1" },
                  { "size": "16" },
                  { "size": "16" }
                ]
              }
            }
          },
          "dtype": { "type": "DT_FLOAT" }
        }
      },
      {
        "name": "PartitionedCall/split_4",
        "op": "Const",
        "attr": {
          "dtype": { "type": "DT_FLOAT" },
          "value": {
            "tensor": {
              "dtype": "DT_FLOAT",
              "tensorShape": {
                "dim": [
                  { "size": "1" },
                  { "size": "1" },
                  { "size": "16" },
                  { "size": "72" }
                ]
              }
            }
          }
        }
      },
      {
        "name": "PartitionedCall/transpose_14/perm",
        "op": "Const",
        "attr": {
          "value": {
            "tensor": {
              "dtype": "DT_INT32",
              "tensorShape": { "dim": [{ "size": "4" }] }
            }
          },
          "dtype": { "type": "DT_INT32" }
        }
      },
      {
        "name": "PartitionedCall/Const_10",
        "op": "Const",
        "attr": {
          "value": {
            "tensor": {
              "dtype": "DT_INT32",
              "tensorShape": { "dim": [{ "size": "4" }, { "size": "2" }] }
            }
          },
          "dtype": { "type": "DT_INT32" }
        }
      },
      {
        "name": "PartitionedCall/transpose_16/perm",
        "op": "Const",
        "attr": {
          "dtype": { "type": "DT_INT32" },
          "value": {
            "tensor": {
              "dtype": "DT_INT32",
              "tensorShape": { "dim": [{ "size": "4" }] }
            }
          }
        }
      },
      {
        "name": "PartitionedCall/Reshape_1",
        "op": "Const",
        "attr": {
          "dtype": { "type": "DT_FLOAT" },
          "value": {
            "tensor": {
              "dtype": "DT_FLOAT",
              "tensorShape": {
                "dim": [
                  { "size": "3" },
                  { "size": "3" },
                  { "size": "72" },
                  { "size": "1" }
                ]
              }
            }
          }
        }
      },
      {
        "name": "PartitionedCall/transpose_17/perm",
        "op": "Const",
        "attr": {
          "dtype": { "type": "DT_INT32" },
          "value": {
            "tensor": {
              "dtype": "DT_INT32",
              "tensorShape": { "dim": [{ "size": "4" }] }
            }
          }
        }
      },
      {
        "name": "PartitionedCall/transpose_19/perm",
        "op": "Const",
        "attr": {
          "value": {
            "tensor": {
              "dtype": "DT_INT32",
              "tensorShape": { "dim": [{ "size": "4" }] }
            }
          },
          "dtype": { "type": "DT_INT32" }
        }
      },
      {
        "name": "PartitionedCall/split_5",
        "op": "Const",
        "attr": {
          "value": {
            "tensor": {
              "dtype": "DT_FLOAT",
              "tensorShape": {
                "dim": [
                  { "size": "1" },
                  { "size": "1" },
                  { "size": "72" },
                  { "size": "24" }
                ]
              }
            }
          },
          "dtype": { "type": "DT_FLOAT" }
        }
      },
      {
        "name": "PartitionedCall/split_6",
        "op": "Const",
        "attr": {
          "dtype": { "type": "DT_FLOAT" },
          "value": {
            "tensor": {
              "dtype": "DT_FLOAT",
              "tensorShape": {
                "dim": [
                  { "size": "1" },
                  { "size": "1" },
                  { "size": "24" },
                  { "size": "88" }
                ]
              }
            }
          }
        }
      },
      {
        "name": "PartitionedCall/transpose_23/perm",
        "op": "Const",
        "attr": {
          "dtype": { "type": "DT_INT32" },
          "value": {
            "tensor": {
              "dtype": "DT_INT32",
              "tensorShape": { "dim": [{ "size": "4" }] }
            }
          }
        }
      },
      {
        "name": "PartitionedCall/Const_13",
        "op": "Const",
        "attr": {
          "dtype": { "type": "DT_INT32" },
          "value": {
            "tensor": {
              "dtype": "DT_INT32",
              "tensorShape": { "dim": [{ "size": "4" }, { "size": "2" }] }
            }
          }
        }
      },
      {
        "name": "PartitionedCall/transpose_25/perm",
        "op": "Const",
        "attr": {
          "value": {
            "tensor": {
              "dtype": "DT_INT32",
              "tensorShape": { "dim": [{ "size": "4" }] }
            }
          },
          "dtype": { "type": "DT_INT32" }
        }
      },
      {
        "name": "PartitionedCall/Reshape_2",
        "op": "Const",
        "attr": {
          "dtype": { "type": "DT_FLOAT" },
          "value": {
            "tensor": {
              "dtype": "DT_FLOAT",
              "tensorShape": {
                "dim": [
                  { "size": "3" },
                  { "size": "3" },
                  { "size": "88" },
                  { "size": "1" }
                ]
              }
            }
          }
        }
      },
      {
        "name": "PartitionedCall/transpose_26/perm",
        "op": "Const",
        "attr": {
          "value": {
            "tensor": {
              "dtype": "DT_INT32",
              "tensorShape": { "dim": [{ "size": "4" }] }
            }
          },
          "dtype": { "type": "DT_INT32" }
        }
      },
      {
        "name": "PartitionedCall/transpose_28/perm",
        "op": "Const",
        "attr": {
          "dtype": { "type": "DT_INT32" },
          "value": {
            "tensor": {
              "dtype": "DT_INT32",
              "tensorShape": { "dim": [{ "size": "4" }] }
            }
          }
        }
      },
      {
        "name": "PartitionedCall/split_7",
        "op": "Const",
        "attr": {
          "value": {
            "tensor": {
              "dtype": "DT_FLOAT",
              "tensorShape": {
                "dim": [
                  { "size": "1" },
                  { "size": "1" },
                  { "size": "88" },
                  { "size": "24" }
                ]
              }
            }
          },
          "dtype": { "type": "DT_FLOAT" }
        }
      },
      {
        "name": "PartitionedCall/transpose_29/perm",
        "op": "Const",
        "attr": {
          "dtype": { "type": "DT_INT32" },
          "value": {
            "tensor": {
              "dtype": "DT_INT32",
              "tensorShape": { "dim": [{ "size": "4" }] }
            }
          }
        }
      },
      {
        "name": "PartitionedCall/transpose_31/perm",
        "op": "Const",
        "attr": {
          "value": {
            "tensor": {
              "dtype": "DT_INT32",
              "tensorShape": { "dim": [{ "size": "4" }] }
            }
          },
          "dtype": { "type": "DT_INT32" }
        }
      },
      {
        "name": "PartitionedCall/split_8",
        "op": "Const",
        "attr": {
          "value": {
            "tensor": {
              "dtype": "DT_FLOAT",
              "tensorShape": {
                "dim": [
                  { "size": "1" },
                  { "size": "1" },
                  { "size": "24" },
                  { "size": "96" }
                ]
              }
            }
          },
          "dtype": { "type": "DT_FLOAT" }
        }
      },
      {
        "name": "PartitionedCall/transpose_32/perm",
        "op": "Const",
        "attr": {
          "value": {
            "tensor": {
              "dtype": "DT_INT32",
              "tensorShape": { "dim": [{ "size": "4" }] }
            }
          },
          "dtype": { "type": "DT_INT32" }
        }
      },
      {
        "name": "PartitionedCall/onnx_tf_prefix_Constant_45",
        "op": "Const",
        "attr": {
          "value": { "tensor": { "dtype": "DT_FLOAT", "tensorShape": {} } },
          "dtype": { "type": "DT_FLOAT" }
        }
      },
      {
        "name": "PartitionedCall/clip_by_value_1/Minimum/y",
        "op": "Const",
        "attr": {
          "value": { "tensor": { "dtype": "DT_FLOAT", "tensorShape": {} } },
          "dtype": { "type": "DT_FLOAT" }
        }
      },
      {
        "name": "PartitionedCall/clip_by_value_1/y",
        "op": "Const",
        "attr": {
          "dtype": { "type": "DT_FLOAT" },
          "value": { "tensor": { "dtype": "DT_FLOAT", "tensorShape": {} } }
        }
      },
      {
        "name": "PartitionedCall/Const_18",
        "op": "Const",
        "attr": {
          "value": {
            "tensor": {
              "dtype": "DT_INT32",
              "tensorShape": { "dim": [{ "size": "4" }, { "size": "2" }] }
            }
          },
          "dtype": { "type": "DT_INT32" }
        }
      },
      {
        "name": "PartitionedCall/transpose_34/perm",
        "op": "Const",
        "attr": {
          "value": {
            "tensor": {
              "dtype": "DT_INT32",
              "tensorShape": { "dim": [{ "size": "4" }] }
            }
          },
          "dtype": { "type": "DT_INT32" }
        }
      },
      {
        "name": "PartitionedCall/Reshape_3",
        "op": "Const",
        "attr": {
          "dtype": { "type": "DT_FLOAT" },
          "value": {
            "tensor": {
              "dtype": "DT_FLOAT",
              "tensorShape": {
                "dim": [
                  { "size": "5" },
                  { "size": "5" },
                  { "size": "96" },
                  { "size": "1" }
                ]
              }
            }
          }
        }
      },
      {
        "name": "PartitionedCall/transpose_35/perm",
        "op": "Const",
        "attr": {
          "dtype": { "type": "DT_INT32" },
          "value": {
            "tensor": {
              "dtype": "DT_INT32",
              "tensorShape": { "dim": [{ "size": "4" }] }
            }
          }
        }
      },
      {
        "name": "ConstantFolding/PartitionedCall/split_9-folded-1",
        "op": "Const",
        "attr": {
          "dtype": { "type": "DT_INT32" },
          "value": {
            "tensor": {
              "dtype": "DT_INT32",
              "tensorShape": { "dim": [{ "size": "2" }] }
            }
          }
        }
      },
      {
        "name": "PartitionedCall/onnx_tf_prefix_Concat_61",
        "op": "Const",
        "attr": {
          "value": {
            "tensor": {
              "dtype": "DT_INT64",
              "tensorShape": { "dim": [{ "size": "2" }] }
            }
          },
          "dtype": { "type": "DT_INT64" }
        }
      },
      {
        "name": "PartitionedCall/Where_2",
        "op": "Const",
        "attr": {
          "value": {
            "tensor": {
              "dtype": "DT_INT64",
              "tensorShape": { "dim": [{}, { "size": "1" }] }
            }
          },
          "dtype": { "type": "DT_INT64" }
        }
      },
      {
        "name": "PartitionedCall/Cast_2",
        "op": "Const",
        "attr": {
          "value": {
            "tensor": {
              "dtype": "DT_INT64",
              "tensorShape": { "dim": [{ "size": "1" }] }
            }
          },
          "dtype": { "type": "DT_INT64" }
        }
      },
      {
        "name": "PartitionedCall/GatherV2_2",
        "op": "Const",
        "attr": {
          "dtype": { "type": "DT_INT64" },
          "value": {
            "tensor": { "dtype": "DT_INT64", "tensorShape": { "dim": [{}] } }
          }
        }
      },
      {
        "name": "PartitionedCall/zeros_2",
        "op": "Const",
        "attr": {
          "value": { "tensor": { "dtype": "DT_INT64", "tensorShape": {} } },
          "dtype": { "type": "DT_INT64" }
        }
      },
      {
        "name": "unknown_27",
        "op": "Const",
        "attr": {
          "dtype": { "type": "DT_FLOAT" },
          "value": {
            "tensor": {
              "dtype": "DT_FLOAT",
              "tensorShape": { "dim": [{ "size": "96" }, { "size": "24" }] }
            }
          }
        }
      },
      {
        "name": "unknown_28",
        "op": "Const",
        "attr": {
          "value": {
            "tensor": {
              "dtype": "DT_FLOAT",
              "tensorShape": { "dim": [{ "size": "24" }, { "size": "96" }] }
            }
          },
          "dtype": { "type": "DT_FLOAT" }
        }
      },
      {
        "name": "PartitionedCall/onnx_tf_prefix_Constant_66",
        "op": "Const",
        "attr": {
          "value": { "tensor": { "dtype": "DT_FLOAT", "tensorShape": {} } },
          "dtype": { "type": "DT_FLOAT" }
        }
      },
      {
        "name": "PartitionedCall/clip_by_value_2/Minimum/y",
        "op": "Const",
        "attr": {
          "dtype": { "type": "DT_FLOAT" },
          "value": { "tensor": { "dtype": "DT_FLOAT", "tensorShape": {} } }
        }
      },
      {
        "name": "PartitionedCall/clip_by_value_2/y",
        "op": "Const",
        "attr": {
          "value": { "tensor": { "dtype": "DT_FLOAT", "tensorShape": {} } },
          "dtype": { "type": "DT_FLOAT" }
        }
      },
      {
        "name": "ConstantFolding/PartitionedCall/onnx_tf_prefix_Div_70_recip",
        "op": "Const",
        "attr": {
          "dtype": { "type": "DT_FLOAT" },
          "value": { "tensor": { "dtype": "DT_FLOAT", "tensorShape": {} } }
        }
      },
      {
        "name": "PartitionedCall/onnx_tf_prefix_Concat_73",
        "op": "Const",
        "attr": {
          "value": {
            "tensor": {
              "dtype": "DT_INT64",
              "tensorShape": { "dim": [{ "size": "4" }] }
            }
          },
          "dtype": { "type": "DT_INT64" }
        }
      },
      {
        "name": "PartitionedCall/Where_3",
        "op": "Const",
        "attr": {
          "value": {
            "tensor": {
              "dtype": "DT_INT64",
              "tensorShape": { "dim": [{}, { "size": "1" }] }
            }
          },
          "dtype": { "type": "DT_INT64" }
        }
      },
      {
        "name": "PartitionedCall/Cast_3",
        "op": "Const",
        "attr": {
          "dtype": { "type": "DT_INT64" },
          "value": {
            "tensor": {
              "dtype": "DT_INT64",
              "tensorShape": { "dim": [{ "size": "1" }] }
            }
          }
        }
      },
      {
        "name": "PartitionedCall/GatherV2_3",
        "op": "Const",
        "attr": {
          "dtype": { "type": "DT_INT64" },
          "value": {
            "tensor": { "dtype": "DT_INT64", "tensorShape": { "dim": [{}] } }
          }
        }
      },
      {
        "name": "PartitionedCall/zeros_3",
        "op": "Const",
        "attr": {
          "dtype": { "type": "DT_INT64" },
          "value": { "tensor": { "dtype": "DT_INT64", "tensorShape": {} } }
        }
      },
      {
        "name": "PartitionedCall/ones_1",
        "op": "Const",
        "attr": {
          "dtype": { "type": "DT_FLOAT" },
          "value": {
            "tensor": {
              "dtype": "DT_FLOAT",
              "tensorShape": {
                "dim": [
                  { "size": "1" },
                  { "size": "96" },
                  { "size": "8" },
                  { "size": "39" }
                ]
              }
            }
          }
        }
      },
      {
        "name": "PartitionedCall/onnx_tf_prefix_Constant_78",
        "op": "Const",
        "attr": {
          "dtype": { "type": "DT_FLOAT" },
          "value": { "tensor": { "dtype": "DT_FLOAT", "tensorShape": {} } }
        }
      },
      {
        "name": "PartitionedCall/clip_by_value_3/Minimum/y",
        "op": "Const",
        "attr": {
          "value": { "tensor": { "dtype": "DT_FLOAT", "tensorShape": {} } },
          "dtype": { "type": "DT_FLOAT" }
        }
      },
      {
        "name": "PartitionedCall/clip_by_value_3/y",
        "op": "Const",
        "attr": {
          "value": { "tensor": { "dtype": "DT_FLOAT", "tensorShape": {} } },
          "dtype": { "type": "DT_FLOAT" }
        }
      },
      {
        "name": "PartitionedCall/transpose_37/perm",
        "op": "Const",
        "attr": {
          "dtype": { "type": "DT_INT32" },
          "value": {
            "tensor": {
              "dtype": "DT_INT32",
              "tensorShape": { "dim": [{ "size": "4" }] }
            }
          }
        }
      },
      {
        "name": "PartitionedCall/split_10",
        "op": "Const",
        "attr": {
          "value": {
            "tensor": {
              "dtype": "DT_FLOAT",
              "tensorShape": {
                "dim": [
                  { "size": "1" },
                  { "size": "1" },
                  { "size": "96" },
                  { "size": "40" }
                ]
              }
            }
          },
          "dtype": { "type": "DT_FLOAT" }
        }
      },
      {
        "name": "PartitionedCall/split_11",
        "op": "Const",
        "attr": {
          "value": {
            "tensor": {
              "dtype": "DT_FLOAT",
              "tensorShape": {
                "dim": [
                  { "size": "1" },
                  { "size": "1" },
                  { "size": "40" },
                  { "size": "240" }
                ]
              }
            }
          },
          "dtype": { "type": "DT_FLOAT" }
        }
      },
      {
        "name": "PartitionedCall/transpose_41/perm",
        "op": "Const",
        "attr": {
          "value": {
            "tensor": {
              "dtype": "DT_INT32",
              "tensorShape": { "dim": [{ "size": "4" }] }
            }
          },
          "dtype": { "type": "DT_INT32" }
        }
      },
      {
        "name": "PartitionedCall/onnx_tf_prefix_Constant_86",
        "op": "Const",
        "attr": {
          "dtype": { "type": "DT_FLOAT" },
          "value": { "tensor": { "dtype": "DT_FLOAT", "tensorShape": {} } }
        }
      },
      {
        "name": "PartitionedCall/clip_by_value_4/Minimum/y",
        "op": "Const",
        "attr": {
          "dtype": { "type": "DT_FLOAT" },
          "value": { "tensor": { "dtype": "DT_FLOAT", "tensorShape": {} } }
        }
      },
      {
        "name": "PartitionedCall/clip_by_value_4/y",
        "op": "Const",
        "attr": {
          "value": { "tensor": { "dtype": "DT_FLOAT", "tensorShape": {} } },
          "dtype": { "type": "DT_FLOAT" }
        }
      },
      {
        "name": "PartitionedCall/Const_29",
        "op": "Const",
        "attr": {
          "dtype": { "type": "DT_INT32" },
          "value": {
            "tensor": {
              "dtype": "DT_INT32",
              "tensorShape": { "dim": [{ "size": "4" }, { "size": "2" }] }
            }
          }
        }
      },
      {
        "name": "PartitionedCall/transpose_43/perm",
        "op": "Const",
        "attr": {
          "dtype": { "type": "DT_INT32" },
          "value": {
            "tensor": {
              "dtype": "DT_INT32",
              "tensorShape": { "dim": [{ "size": "4" }] }
            }
          }
        }
      },
      {
        "name": "PartitionedCall/Reshape_4",
        "op": "Const",
        "attr": {
          "value": {
            "tensor": {
              "dtype": "DT_FLOAT",
              "tensorShape": {
                "dim": [
                  { "size": "5" },
                  { "size": "5" },
                  { "size": "240" },
                  { "size": "1" }
                ]
              }
            }
          },
          "dtype": { "type": "DT_FLOAT" }
        }
      },
      {
        "name": "PartitionedCall/transpose_44/perm",
        "op": "Const",
        "attr": {
          "value": {
            "tensor": {
              "dtype": "DT_INT32",
              "tensorShape": { "dim": [{ "size": "4" }] }
            }
          },
          "dtype": { "type": "DT_INT32" }
        }
      },
      {
        "name": "ConstantFolding/PartitionedCall/split_12-folded-1",
        "op": "Const",
        "attr": {
          "value": {
            "tensor": {
              "dtype": "DT_INT32",
              "tensorShape": { "dim": [{ "size": "2" }] }
            }
          },
          "dtype": { "type": "DT_INT32" }
        }
      },
      {
        "name": "PartitionedCall/onnx_tf_prefix_Concat_102",
        "op": "Const",
        "attr": {
          "value": {
            "tensor": {
              "dtype": "DT_INT64",
              "tensorShape": { "dim": [{ "size": "2" }] }
            }
          },
          "dtype": { "type": "DT_INT64" }
        }
      },
      {
        "name": "PartitionedCall/Where_4",
        "op": "Const",
        "attr": {
          "value": {
            "tensor": {
              "dtype": "DT_INT64",
              "tensorShape": { "dim": [{}, { "size": "1" }] }
            }
          },
          "dtype": { "type": "DT_INT64" }
        }
      },
      {
        "name": "PartitionedCall/Cast_4",
        "op": "Const",
        "attr": {
          "value": {
            "tensor": {
              "dtype": "DT_INT64",
              "tensorShape": { "dim": [{ "size": "1" }] }
            }
          },
          "dtype": { "type": "DT_INT64" }
        }
      },
      {
        "name": "PartitionedCall/GatherV2_4",
        "op": "Const",
        "attr": {
          "value": {
            "tensor": { "dtype": "DT_INT64", "tensorShape": { "dim": [{}] } }
          },
          "dtype": { "type": "DT_INT64" }
        }
      },
      {
        "name": "PartitionedCall/zeros_4",
        "op": "Const",
        "attr": {
          "value": { "tensor": { "dtype": "DT_INT64", "tensorShape": {} } },
          "dtype": { "type": "DT_INT64" }
        }
      },
      {
        "name": "unknown_37",
        "op": "Const",
        "attr": {
          "value": {
            "tensor": {
              "dtype": "DT_FLOAT",
              "tensorShape": { "dim": [{ "size": "240" }, { "size": "60" }] }
            }
          },
          "dtype": { "type": "DT_FLOAT" }
        }
      },
      {
        "name": "unknown_38",
        "op": "Const",
        "attr": {
          "dtype": { "type": "DT_FLOAT" },
          "value": {
            "tensor": {
              "dtype": "DT_FLOAT",
              "tensorShape": { "dim": [{ "size": "60" }, { "size": "240" }] }
            }
          }
        }
      },
      {
        "name": "PartitionedCall/onnx_tf_prefix_Constant_107",
        "op": "Const",
        "attr": {
          "value": { "tensor": { "dtype": "DT_FLOAT", "tensorShape": {} } },
          "dtype": { "type": "DT_FLOAT" }
        }
      },
      {
        "name": "PartitionedCall/clip_by_value_5/Minimum/y",
        "op": "Const",
        "attr": {
          "value": { "tensor": { "dtype": "DT_FLOAT", "tensorShape": {} } },
          "dtype": { "type": "DT_FLOAT" }
        }
      },
      {
        "name": "PartitionedCall/clip_by_value_5/y",
        "op": "Const",
        "attr": {
          "dtype": { "type": "DT_FLOAT" },
          "value": { "tensor": { "dtype": "DT_FLOAT", "tensorShape": {} } }
        }
      },
      {
        "name": "ConstantFolding/PartitionedCall/onnx_tf_prefix_Div_111_recip",
        "op": "Const",
        "attr": {
          "value": { "tensor": { "dtype": "DT_FLOAT", "tensorShape": {} } },
          "dtype": { "type": "DT_FLOAT" }
        }
      },
      {
        "name": "PartitionedCall/onnx_tf_prefix_Concat_114",
        "op": "Const",
        "attr": {
          "dtype": { "type": "DT_INT64" },
          "value": {
            "tensor": {
              "dtype": "DT_INT64",
              "tensorShape": { "dim": [{ "size": "4" }] }
            }
          }
        }
      },
      {
        "name": "PartitionedCall/Where_5",
        "op": "Const",
        "attr": {
          "dtype": { "type": "DT_INT64" },
          "value": {
            "tensor": {
              "dtype": "DT_INT64",
              "tensorShape": { "dim": [{}, { "size": "1" }] }
            }
          }
        }
      },
      {
        "name": "PartitionedCall/Cast_5",
        "op": "Const",
        "attr": {
          "dtype": { "type": "DT_INT64" },
          "value": {
            "tensor": {
              "dtype": "DT_INT64",
              "tensorShape": { "dim": [{ "size": "1" }] }
            }
          }
        }
      },
      {
        "name": "PartitionedCall/GatherV2_5",
        "op": "Const",
        "attr": {
          "dtype": { "type": "DT_INT64" },
          "value": {
            "tensor": { "dtype": "DT_INT64", "tensorShape": { "dim": [{}] } }
          }
        }
      },
      {
        "name": "PartitionedCall/zeros_5",
        "op": "Const",
        "attr": {
          "value": { "tensor": { "dtype": "DT_INT64", "tensorShape": {} } },
          "dtype": { "type": "DT_INT64" }
        }
      },
      {
        "name": "PartitionedCall/ones_2",
        "op": "Const",
        "attr": {
          "dtype": { "type": "DT_FLOAT" },
          "value": {
            "tensor": {
              "dtype": "DT_FLOAT",
              "tensorShape": {
                "dim": [
                  { "size": "1" },
                  { "size": "240" },
                  { "size": "8" },
                  { "size": "39" }
                ]
              }
            }
          }
        }
      },
      {
        "name": "PartitionedCall/onnx_tf_prefix_Constant_119",
        "op": "Const",
        "attr": {
          "dtype": { "type": "DT_FLOAT" },
          "value": { "tensor": { "dtype": "DT_FLOAT", "tensorShape": {} } }
        }
      },
      {
        "name": "PartitionedCall/clip_by_value_6/Minimum/y",
        "op": "Const",
        "attr": {
          "value": { "tensor": { "dtype": "DT_FLOAT", "tensorShape": {} } },
          "dtype": { "type": "DT_FLOAT" }
        }
      },
      {
        "name": "PartitionedCall/clip_by_value_6/y",
        "op": "Const",
        "attr": {
          "dtype": { "type": "DT_FLOAT" },
          "value": { "tensor": { "dtype": "DT_FLOAT", "tensorShape": {} } }
        }
      },
      {
        "name": "PartitionedCall/transpose_46/perm",
        "op": "Const",
        "attr": {
          "dtype": { "type": "DT_INT32" },
          "value": {
            "tensor": {
              "dtype": "DT_INT32",
              "tensorShape": { "dim": [{ "size": "4" }] }
            }
          }
        }
      },
      {
        "name": "PartitionedCall/split_13",
        "op": "Const",
        "attr": {
          "dtype": { "type": "DT_FLOAT" },
          "value": {
            "tensor": {
              "dtype": "DT_FLOAT",
              "tensorShape": {
                "dim": [
                  { "size": "1" },
                  { "size": "1" },
                  { "size": "240" },
                  { "size": "40" }
                ]
              }
            }
          }
        }
      },
      {
        "name": "PartitionedCall/transpose_47/perm",
        "op": "Const",
        "attr": {
          "value": {
            "tensor": {
              "dtype": "DT_INT32",
              "tensorShape": { "dim": [{ "size": "4" }] }
            }
          },
          "dtype": { "type": "DT_INT32" }
        }
      },
      {
        "name": "PartitionedCall/transpose_49/perm",
        "op": "Const",
        "attr": {
          "dtype": { "type": "DT_INT32" },
          "value": {
            "tensor": {
              "dtype": "DT_INT32",
              "tensorShape": { "dim": [{ "size": "4" }] }
            }
          }
        }
      },
      {
        "name": "PartitionedCall/split_14",
        "op": "Const",
        "attr": {
          "value": {
            "tensor": {
              "dtype": "DT_FLOAT",
              "tensorShape": {
                "dim": [
                  { "size": "1" },
                  { "size": "1" },
                  { "size": "40" },
                  { "size": "240" }
                ]
              }
            }
          },
          "dtype": { "type": "DT_FLOAT" }
        }
      },
      {
        "name": "PartitionedCall/transpose_50/perm",
        "op": "Const",
        "attr": {
          "value": {
            "tensor": {
              "dtype": "DT_INT32",
              "tensorShape": { "dim": [{ "size": "4" }] }
            }
          },
          "dtype": { "type": "DT_INT32" }
        }
      },
      {
        "name": "PartitionedCall/onnx_tf_prefix_Constant_128",
        "op": "Const",
        "attr": {
          "value": { "tensor": { "dtype": "DT_FLOAT", "tensorShape": {} } },
          "dtype": { "type": "DT_FLOAT" }
        }
      },
      {
        "name": "PartitionedCall/clip_by_value_7/Minimum/y",
        "op": "Const",
        "attr": {
          "dtype": { "type": "DT_FLOAT" },
          "value": { "tensor": { "dtype": "DT_FLOAT", "tensorShape": {} } }
        }
      },
      {
        "name": "PartitionedCall/clip_by_value_7/y",
        "op": "Const",
        "attr": {
          "dtype": { "type": "DT_FLOAT" },
          "value": { "tensor": { "dtype": "DT_FLOAT", "tensorShape": {} } }
        }
      },
      {
        "name": "PartitionedCall/Const_40",
        "op": "Const",
        "attr": {
          "value": {
            "tensor": {
              "dtype": "DT_INT32",
              "tensorShape": { "dim": [{ "size": "4" }, { "size": "2" }] }
            }
          },
          "dtype": { "type": "DT_INT32" }
        }
      },
      {
        "name": "PartitionedCall/transpose_52/perm",
        "op": "Const",
        "attr": {
          "dtype": { "type": "DT_INT32" },
          "value": {
            "tensor": {
              "dtype": "DT_INT32",
              "tensorShape": { "dim": [{ "size": "4" }] }
            }
          }
        }
      },
      {
        "name": "PartitionedCall/Reshape_5",
        "op": "Const",
        "attr": {
          "value": {
            "tensor": {
              "dtype": "DT_FLOAT",
              "tensorShape": {
                "dim": [
                  { "size": "5" },
                  { "size": "5" },
                  { "size": "240" },
                  { "size": "1" }
                ]
              }
            }
          },
          "dtype": { "type": "DT_FLOAT" }
        }
      },
      {
        "name": "PartitionedCall/transpose_53/perm",
        "op": "Const",
        "attr": {
          "dtype": { "type": "DT_INT32" },
          "value": {
            "tensor": {
              "dtype": "DT_INT32",
              "tensorShape": { "dim": [{ "size": "4" }] }
            }
          }
        }
      },
      {
        "name": "ConstantFolding/PartitionedCall/split_15-folded-1",
        "op": "Const",
        "attr": {
          "value": {
            "tensor": {
              "dtype": "DT_INT32",
              "tensorShape": { "dim": [{ "size": "2" }] }
            }
          },
          "dtype": { "type": "DT_INT32" }
        }
      },
      {
        "name": "PartitionedCall/onnx_tf_prefix_Concat_144",
        "op": "Const",
        "attr": {
          "dtype": { "type": "DT_INT64" },
          "value": {
            "tensor": {
              "dtype": "DT_INT64",
              "tensorShape": { "dim": [{ "size": "2" }] }
            }
          }
        }
      },
      {
        "name": "PartitionedCall/Where_6",
        "op": "Const",
        "attr": {
          "dtype": { "type": "DT_INT64" },
          "value": {
            "tensor": {
              "dtype": "DT_INT64",
              "tensorShape": { "dim": [{}, { "size": "1" }] }
            }
          }
        }
      },
      {
        "name": "PartitionedCall/Cast_6",
        "op": "Const",
        "attr": {
          "dtype": { "type": "DT_INT64" },
          "value": {
            "tensor": {
              "dtype": "DT_INT64",
              "tensorShape": { "dim": [{ "size": "1" }] }
            }
          }
        }
      },
      {
        "name": "PartitionedCall/GatherV2_6",
        "op": "Const",
        "attr": {
          "dtype": { "type": "DT_INT64" },
          "value": {
            "tensor": { "dtype": "DT_INT64", "tensorShape": { "dim": [{}] } }
          }
        }
      },
      {
        "name": "PartitionedCall/zeros_6",
        "op": "Const",
        "attr": {
          "value": { "tensor": { "dtype": "DT_INT64", "tensorShape": {} } },
          "dtype": { "type": "DT_INT64" }
        }
      },
      {
        "name": "unknown_47",
        "op": "Const",
        "attr": {
          "value": {
            "tensor": {
              "dtype": "DT_FLOAT",
              "tensorShape": { "dim": [{ "size": "240" }, { "size": "60" }] }
            }
          },
          "dtype": { "type": "DT_FLOAT" }
        }
      },
      {
        "name": "unknown_48",
        "op": "Const",
        "attr": {
          "dtype": { "type": "DT_FLOAT" },
          "value": {
            "tensor": {
              "dtype": "DT_FLOAT",
              "tensorShape": { "dim": [{ "size": "60" }, { "size": "240" }] }
            }
          }
        }
      },
      {
        "name": "PartitionedCall/onnx_tf_prefix_Constant_149",
        "op": "Const",
        "attr": {
          "value": { "tensor": { "dtype": "DT_FLOAT", "tensorShape": {} } },
          "dtype": { "type": "DT_FLOAT" }
        }
      },
      {
        "name": "PartitionedCall/clip_by_value_8/Minimum/y",
        "op": "Const",
        "attr": {
          "value": { "tensor": { "dtype": "DT_FLOAT", "tensorShape": {} } },
          "dtype": { "type": "DT_FLOAT" }
        }
      },
      {
        "name": "PartitionedCall/clip_by_value_8/y",
        "op": "Const",
        "attr": {
          "dtype": { "type": "DT_FLOAT" },
          "value": { "tensor": { "dtype": "DT_FLOAT", "tensorShape": {} } }
        }
      },
      {
        "name": "ConstantFolding/PartitionedCall/onnx_tf_prefix_Div_153_recip",
        "op": "Const",
        "attr": {
          "dtype": { "type": "DT_FLOAT" },
          "value": { "tensor": { "dtype": "DT_FLOAT", "tensorShape": {} } }
        }
      },
      {
        "name": "PartitionedCall/onnx_tf_prefix_Concat_156",
        "op": "Const",
        "attr": {
          "value": {
            "tensor": {
              "dtype": "DT_INT64",
              "tensorShape": { "dim": [{ "size": "4" }] }
            }
          },
          "dtype": { "type": "DT_INT64" }
        }
      },
      {
        "name": "PartitionedCall/Where_7",
        "op": "Const",
        "attr": {
          "dtype": { "type": "DT_INT64" },
          "value": {
            "tensor": {
              "dtype": "DT_INT64",
              "tensorShape": { "dim": [{}, { "size": "1" }] }
            }
          }
        }
      },
      {
        "name": "PartitionedCall/Cast_7",
        "op": "Const",
        "attr": {
          "value": {
            "tensor": {
              "dtype": "DT_INT64",
              "tensorShape": { "dim": [{ "size": "1" }] }
            }
          },
          "dtype": { "type": "DT_INT64" }
        }
      },
      {
        "name": "PartitionedCall/GatherV2_7",
        "op": "Const",
        "attr": {
          "dtype": { "type": "DT_INT64" },
          "value": {
            "tensor": { "dtype": "DT_INT64", "tensorShape": { "dim": [{}] } }
          }
        }
      },
      {
        "name": "PartitionedCall/zeros_7",
        "op": "Const",
        "attr": {
          "dtype": { "type": "DT_INT64" },
          "value": { "tensor": { "dtype": "DT_INT64", "tensorShape": {} } }
        }
      },
      {
        "name": "PartitionedCall/ones_3",
        "op": "Const",
        "attr": {
          "dtype": { "type": "DT_FLOAT" },
          "value": {
            "tensor": {
              "dtype": "DT_FLOAT",
              "tensorShape": {
                "dim": [
                  { "size": "1" },
                  { "size": "240" },
                  { "size": "8" },
                  { "size": "39" }
                ]
              }
            }
          }
        }
      },
      {
        "name": "PartitionedCall/onnx_tf_prefix_Constant_161",
        "op": "Const",
        "attr": {
          "dtype": { "type": "DT_FLOAT" },
          "value": { "tensor": { "dtype": "DT_FLOAT", "tensorShape": {} } }
        }
      },
      {
        "name": "PartitionedCall/clip_by_value_9/Minimum/y",
        "op": "Const",
        "attr": {
          "value": { "tensor": { "dtype": "DT_FLOAT", "tensorShape": {} } },
          "dtype": { "type": "DT_FLOAT" }
        }
      },
      {
        "name": "PartitionedCall/clip_by_value_9/y",
        "op": "Const",
        "attr": {
          "dtype": { "type": "DT_FLOAT" },
          "value": { "tensor": { "dtype": "DT_FLOAT", "tensorShape": {} } }
        }
      },
      {
        "name": "PartitionedCall/transpose_55/perm",
        "op": "Const",
        "attr": {
          "dtype": { "type": "DT_INT32" },
          "value": {
            "tensor": {
              "dtype": "DT_INT32",
              "tensorShape": { "dim": [{ "size": "4" }] }
            }
          }
        }
      },
      {
        "name": "PartitionedCall/split_16",
        "op": "Const",
        "attr": {
          "value": {
            "tensor": {
              "dtype": "DT_FLOAT",
              "tensorShape": {
                "dim": [
                  { "size": "1" },
                  { "size": "1" },
                  { "size": "240" },
                  { "size": "40" }
                ]
              }
            }
          },
          "dtype": { "type": "DT_FLOAT" }
        }
      },
      {
        "name": "PartitionedCall/transpose_56/perm",
        "op": "Const",
        "attr": {
          "value": {
            "tensor": {
              "dtype": "DT_INT32",
              "tensorShape": { "dim": [{ "size": "4" }] }
            }
          },
          "dtype": { "type": "DT_INT32" }
        }
      },
      {
        "name": "PartitionedCall/transpose_58/perm",
        "op": "Const",
        "attr": {
          "value": {
            "tensor": {
              "dtype": "DT_INT32",
              "tensorShape": { "dim": [{ "size": "4" }] }
            }
          },
          "dtype": { "type": "DT_INT32" }
        }
      },
      {
        "name": "PartitionedCall/split_17",
        "op": "Const",
        "attr": {
          "value": {
            "tensor": {
              "dtype": "DT_FLOAT",
              "tensorShape": {
                "dim": [
                  { "size": "1" },
                  { "size": "1" },
                  { "size": "40" },
                  { "size": "120" }
                ]
              }
            }
          },
          "dtype": { "type": "DT_FLOAT" }
        }
      },
      {
        "name": "PartitionedCall/transpose_59/perm",
        "op": "Const",
        "attr": {
          "dtype": { "type": "DT_INT32" },
          "value": {
            "tensor": {
              "dtype": "DT_INT32",
              "tensorShape": { "dim": [{ "size": "4" }] }
            }
          }
        }
      },
      {
        "name": "PartitionedCall/onnx_tf_prefix_Constant_170",
        "op": "Const",
        "attr": {
          "value": { "tensor": { "dtype": "DT_FLOAT", "tensorShape": {} } },
          "dtype": { "type": "DT_FLOAT" }
        }
      },
      {
        "name": "PartitionedCall/clip_by_value_10/Minimum/y",
        "op": "Const",
        "attr": {
          "dtype": { "type": "DT_FLOAT" },
          "value": { "tensor": { "dtype": "DT_FLOAT", "tensorShape": {} } }
        }
      },
      {
        "name": "PartitionedCall/clip_by_value_10/y",
        "op": "Const",
        "attr": {
          "value": { "tensor": { "dtype": "DT_FLOAT", "tensorShape": {} } },
          "dtype": { "type": "DT_FLOAT" }
        }
      },
      {
        "name": "PartitionedCall/Const_51",
        "op": "Const",
        "attr": {
          "dtype": { "type": "DT_INT32" },
          "value": {
            "tensor": {
              "dtype": "DT_INT32",
              "tensorShape": { "dim": [{ "size": "4" }, { "size": "2" }] }
            }
          }
        }
      },
      {
        "name": "PartitionedCall/transpose_61/perm",
        "op": "Const",
        "attr": {
          "value": {
            "tensor": {
              "dtype": "DT_INT32",
              "tensorShape": { "dim": [{ "size": "4" }] }
            }
          },
          "dtype": { "type": "DT_INT32" }
        }
      },
      {
        "name": "PartitionedCall/Reshape_6",
        "op": "Const",
        "attr": {
          "dtype": { "type": "DT_FLOAT" },
          "value": {
            "tensor": {
              "dtype": "DT_FLOAT",
              "tensorShape": {
                "dim": [
                  { "size": "5" },
                  { "size": "5" },
                  { "size": "120" },
                  { "size": "1" }
                ]
              }
            }
          }
        }
      },
      {
        "name": "PartitionedCall/transpose_62/perm",
        "op": "Const",
        "attr": {
          "value": {
            "tensor": {
              "dtype": "DT_INT32",
              "tensorShape": { "dim": [{ "size": "4" }] }
            }
          },
          "dtype": { "type": "DT_INT32" }
        }
      },
      {
        "name": "ConstantFolding/PartitionedCall/split_18-folded-1",
        "op": "Const",
        "attr": {
          "dtype": { "type": "DT_INT32" },
          "value": {
            "tensor": {
              "dtype": "DT_INT32",
              "tensorShape": { "dim": [{ "size": "2" }] }
            }
          }
        }
      },
      {
        "name": "PartitionedCall/onnx_tf_prefix_Concat_186",
        "op": "Const",
        "attr": {
          "value": {
            "tensor": {
              "dtype": "DT_INT64",
              "tensorShape": { "dim": [{ "size": "2" }] }
            }
          },
          "dtype": { "type": "DT_INT64" }
        }
      },
      {
        "name": "PartitionedCall/Where_8",
        "op": "Const",
        "attr": {
          "dtype": { "type": "DT_INT64" },
          "value": {
            "tensor": {
              "dtype": "DT_INT64",
              "tensorShape": { "dim": [{}, { "size": "1" }] }
            }
          }
        }
      },
      {
        "name": "PartitionedCall/Cast_8",
        "op": "Const",
        "attr": {
          "dtype": { "type": "DT_INT64" },
          "value": {
            "tensor": {
              "dtype": "DT_INT64",
              "tensorShape": { "dim": [{ "size": "1" }] }
            }
          }
        }
      },
      {
        "name": "PartitionedCall/GatherV2_8",
        "op": "Const",
        "attr": {
          "value": {
            "tensor": { "dtype": "DT_INT64", "tensorShape": { "dim": [{}] } }
          },
          "dtype": { "type": "DT_INT64" }
        }
      },
      {
        "name": "PartitionedCall/zeros_8",
        "op": "Const",
        "attr": {
          "dtype": { "type": "DT_INT64" },
          "value": { "tensor": { "dtype": "DT_INT64", "tensorShape": {} } }
        }
      },
      {
        "name": "unknown_57",
        "op": "Const",
        "attr": {
          "dtype": { "type": "DT_FLOAT" },
          "value": {
            "tensor": {
              "dtype": "DT_FLOAT",
              "tensorShape": { "dim": [{ "size": "120" }, { "size": "30" }] }
            }
          }
        }
      },
      {
        "name": "unknown_58",
        "op": "Const",
        "attr": {
          "dtype": { "type": "DT_FLOAT" },
          "value": {
            "tensor": {
              "dtype": "DT_FLOAT",
              "tensorShape": { "dim": [{ "size": "30" }, { "size": "120" }] }
            }
          }
        }
      },
      {
        "name": "PartitionedCall/onnx_tf_prefix_Constant_191",
        "op": "Const",
        "attr": {
          "value": { "tensor": { "dtype": "DT_FLOAT", "tensorShape": {} } },
          "dtype": { "type": "DT_FLOAT" }
        }
      },
      {
        "name": "PartitionedCall/clip_by_value_11/Minimum/y",
        "op": "Const",
        "attr": {
          "value": { "tensor": { "dtype": "DT_FLOAT", "tensorShape": {} } },
          "dtype": { "type": "DT_FLOAT" }
        }
      },
      {
        "name": "PartitionedCall/clip_by_value_11/y",
        "op": "Const",
        "attr": {
          "value": { "tensor": { "dtype": "DT_FLOAT", "tensorShape": {} } },
          "dtype": { "type": "DT_FLOAT" }
        }
      },
      {
        "name": "ConstantFolding/PartitionedCall/onnx_tf_prefix_Div_195_recip",
        "op": "Const",
        "attr": {
          "dtype": { "type": "DT_FLOAT" },
          "value": { "tensor": { "dtype": "DT_FLOAT", "tensorShape": {} } }
        }
      },
      {
        "name": "PartitionedCall/onnx_tf_prefix_Concat_198",
        "op": "Const",
        "attr": {
          "dtype": { "type": "DT_INT64" },
          "value": {
            "tensor": {
              "dtype": "DT_INT64",
              "tensorShape": { "dim": [{ "size": "4" }] }
            }
          }
        }
      },
      {
        "name": "PartitionedCall/Where_9",
        "op": "Const",
        "attr": {
          "dtype": { "type": "DT_INT64" },
          "value": {
            "tensor": {
              "dtype": "DT_INT64",
              "tensorShape": { "dim": [{}, { "size": "1" }] }
            }
          }
        }
      },
      {
        "name": "PartitionedCall/Cast_9",
        "op": "Const",
        "attr": {
          "dtype": { "type": "DT_INT64" },
          "value": {
            "tensor": {
              "dtype": "DT_INT64",
              "tensorShape": { "dim": [{ "size": "1" }] }
            }
          }
        }
      },
      {
        "name": "PartitionedCall/GatherV2_9",
        "op": "Const",
        "attr": {
          "dtype": { "type": "DT_INT64" },
          "value": {
            "tensor": { "dtype": "DT_INT64", "tensorShape": { "dim": [{}] } }
          }
        }
      },
      {
        "name": "PartitionedCall/zeros_9",
        "op": "Const",
        "attr": {
          "value": { "tensor": { "dtype": "DT_INT64", "tensorShape": {} } },
          "dtype": { "type": "DT_INT64" }
        }
      },
      {
        "name": "PartitionedCall/ones_4",
        "op": "Const",
        "attr": {
          "dtype": { "type": "DT_FLOAT" },
          "value": {
            "tensor": {
              "dtype": "DT_FLOAT",
              "tensorShape": {
                "dim": [
                  { "size": "1" },
                  { "size": "120" },
                  { "size": "8" },
                  { "size": "39" }
                ]
              }
            }
          }
        }
      },
      {
        "name": "PartitionedCall/onnx_tf_prefix_Constant_203",
        "op": "Const",
        "attr": {
          "dtype": { "type": "DT_FLOAT" },
          "value": { "tensor": { "dtype": "DT_FLOAT", "tensorShape": {} } }
        }
      },
      {
        "name": "PartitionedCall/clip_by_value_12/Minimum/y",
        "op": "Const",
        "attr": {
          "dtype": { "type": "DT_FLOAT" },
          "value": { "tensor": { "dtype": "DT_FLOAT", "tensorShape": {} } }
        }
      },
      {
        "name": "PartitionedCall/clip_by_value_12/y",
        "op": "Const",
        "attr": {
          "dtype": { "type": "DT_FLOAT" },
          "value": { "tensor": { "dtype": "DT_FLOAT", "tensorShape": {} } }
        }
      },
      {
        "name": "PartitionedCall/transpose_64/perm",
        "op": "Const",
        "attr": {
          "value": {
            "tensor": {
              "dtype": "DT_INT32",
              "tensorShape": { "dim": [{ "size": "4" }] }
            }
          },
          "dtype": { "type": "DT_INT32" }
        }
      },
      {
        "name": "PartitionedCall/split_19",
        "op": "Const",
        "attr": {
          "value": {
            "tensor": {
              "dtype": "DT_FLOAT",
              "tensorShape": {
                "dim": [
                  { "size": "1" },
                  { "size": "1" },
                  { "size": "120" },
                  { "size": "48" }
                ]
              }
            }
          },
          "dtype": { "type": "DT_FLOAT" }
        }
      },
      {
        "name": "PartitionedCall/split_20",
        "op": "Const",
        "attr": {
          "dtype": { "type": "DT_FLOAT" },
          "value": {
            "tensor": {
              "dtype": "DT_FLOAT",
              "tensorShape": {
                "dim": [
                  { "size": "1" },
                  { "size": "1" },
                  { "size": "48" },
                  { "size": "144" }
                ]
              }
            }
          }
        }
      },
      {
        "name": "PartitionedCall/transpose_68/perm",
        "op": "Const",
        "attr": {
          "value": {
            "tensor": {
              "dtype": "DT_INT32",
              "tensorShape": { "dim": [{ "size": "4" }] }
            }
          },
          "dtype": { "type": "DT_INT32" }
        }
      },
      {
        "name": "PartitionedCall/onnx_tf_prefix_Constant_211",
        "op": "Const",
        "attr": {
          "value": { "tensor": { "dtype": "DT_FLOAT", "tensorShape": {} } },
          "dtype": { "type": "DT_FLOAT" }
        }
      },
      {
        "name": "PartitionedCall/clip_by_value_13/Minimum/y",
        "op": "Const",
        "attr": {
          "dtype": { "type": "DT_FLOAT" },
          "value": { "tensor": { "dtype": "DT_FLOAT", "tensorShape": {} } }
        }
      },
      {
        "name": "PartitionedCall/clip_by_value_13/y",
        "op": "Const",
        "attr": {
          "dtype": { "type": "DT_FLOAT" },
          "value": { "tensor": { "dtype": "DT_FLOAT", "tensorShape": {} } }
        }
      },
      {
        "name": "PartitionedCall/Const_62",
        "op": "Const",
        "attr": {
          "value": {
            "tensor": {
              "dtype": "DT_INT32",
              "tensorShape": { "dim": [{ "size": "4" }, { "size": "2" }] }
            }
          },
          "dtype": { "type": "DT_INT32" }
        }
      },
      {
        "name": "PartitionedCall/transpose_70/perm",
        "op": "Const",
        "attr": {
          "value": {
            "tensor": {
              "dtype": "DT_INT32",
              "tensorShape": { "dim": [{ "size": "4" }] }
            }
          },
          "dtype": { "type": "DT_INT32" }
        }
      },
      {
        "name": "PartitionedCall/Reshape_7",
        "op": "Const",
        "attr": {
          "dtype": { "type": "DT_FLOAT" },
          "value": {
            "tensor": {
              "dtype": "DT_FLOAT",
              "tensorShape": {
                "dim": [
                  { "size": "5" },
                  { "size": "5" },
                  { "size": "144" },
                  { "size": "1" }
                ]
              }
            }
          }
        }
      },
      {
        "name": "PartitionedCall/transpose_71/perm",
        "op": "Const",
        "attr": {
          "value": {
            "tensor": {
              "dtype": "DT_INT32",
              "tensorShape": { "dim": [{ "size": "4" }] }
            }
          },
          "dtype": { "type": "DT_INT32" }
        }
      },
      {
        "name": "ConstantFolding/PartitionedCall/split_21-folded-1",
        "op": "Const",
        "attr": {
          "dtype": { "type": "DT_INT32" },
          "value": {
            "tensor": {
              "dtype": "DT_INT32",
              "tensorShape": { "dim": [{ "size": "2" }] }
            }
          }
        }
      },
      {
        "name": "PartitionedCall/onnx_tf_prefix_Concat_227",
        "op": "Const",
        "attr": {
          "value": {
            "tensor": {
              "dtype": "DT_INT64",
              "tensorShape": { "dim": [{ "size": "2" }] }
            }
          },
          "dtype": { "type": "DT_INT64" }
        }
      },
      {
        "name": "PartitionedCall/Where_10",
        "op": "Const",
        "attr": {
          "dtype": { "type": "DT_INT64" },
          "value": {
            "tensor": {
              "dtype": "DT_INT64",
              "tensorShape": { "dim": [{}, { "size": "1" }] }
            }
          }
        }
      },
      {
        "name": "PartitionedCall/Cast_10",
        "op": "Const",
        "attr": {
          "dtype": { "type": "DT_INT64" },
          "value": {
            "tensor": {
              "dtype": "DT_INT64",
              "tensorShape": { "dim": [{ "size": "1" }] }
            }
          }
        }
      },
      {
        "name": "PartitionedCall/GatherV2_10",
        "op": "Const",
        "attr": {
          "dtype": { "type": "DT_INT64" },
          "value": {
            "tensor": { "dtype": "DT_INT64", "tensorShape": { "dim": [{}] } }
          }
        }
      },
      {
        "name": "PartitionedCall/zeros_10",
        "op": "Const",
        "attr": {
          "value": { "tensor": { "dtype": "DT_INT64", "tensorShape": {} } },
          "dtype": { "type": "DT_INT64" }
        }
      },
      {
        "name": "unknown_67",
        "op": "Const",
        "attr": {
          "dtype": { "type": "DT_FLOAT" },
          "value": {
            "tensor": {
              "dtype": "DT_FLOAT",
              "tensorShape": { "dim": [{ "size": "144" }, { "size": "36" }] }
            }
          }
        }
      },
      {
        "name": "unknown_68",
        "op": "Const",
        "attr": {
          "value": {
            "tensor": {
              "dtype": "DT_FLOAT",
              "tensorShape": { "dim": [{ "size": "36" }, { "size": "144" }] }
            }
          },
          "dtype": { "type": "DT_FLOAT" }
        }
      },
      {
        "name": "PartitionedCall/onnx_tf_prefix_Constant_232",
        "op": "Const",
        "attr": {
          "dtype": { "type": "DT_FLOAT" },
          "value": { "tensor": { "dtype": "DT_FLOAT", "tensorShape": {} } }
        }
      },
      {
        "name": "PartitionedCall/clip_by_value_14/Minimum/y",
        "op": "Const",
        "attr": {
          "dtype": { "type": "DT_FLOAT" },
          "value": { "tensor": { "dtype": "DT_FLOAT", "tensorShape": {} } }
        }
      },
      {
        "name": "PartitionedCall/clip_by_value_14/y",
        "op": "Const",
        "attr": {
          "value": { "tensor": { "dtype": "DT_FLOAT", "tensorShape": {} } },
          "dtype": { "type": "DT_FLOAT" }
        }
      },
      {
        "name": "ConstantFolding/PartitionedCall/onnx_tf_prefix_Div_236_recip",
        "op": "Const",
        "attr": {
          "value": { "tensor": { "dtype": "DT_FLOAT", "tensorShape": {} } },
          "dtype": { "type": "DT_FLOAT" }
        }
      },
      {
        "name": "PartitionedCall/onnx_tf_prefix_Concat_239",
        "op": "Const",
        "attr": {
          "dtype": { "type": "DT_INT64" },
          "value": {
            "tensor": {
              "dtype": "DT_INT64",
              "tensorShape": { "dim": [{ "size": "4" }] }
            }
          }
        }
      },
      {
        "name": "PartitionedCall/Where_11",
        "op": "Const",
        "attr": {
          "dtype": { "type": "DT_INT64" },
          "value": {
            "tensor": {
              "dtype": "DT_INT64",
              "tensorShape": { "dim": [{}, { "size": "1" }] }
            }
          }
        }
      },
      {
        "name": "PartitionedCall/Cast_11",
        "op": "Const",
        "attr": {
          "dtype": { "type": "DT_INT64" },
          "value": {
            "tensor": {
              "dtype": "DT_INT64",
              "tensorShape": { "dim": [{ "size": "1" }] }
            }
          }
        }
      },
      {
        "name": "PartitionedCall/GatherV2_11",
        "op": "Const",
        "attr": {
          "dtype": { "type": "DT_INT64" },
          "value": {
            "tensor": { "dtype": "DT_INT64", "tensorShape": { "dim": [{}] } }
          }
        }
      },
      {
        "name": "PartitionedCall/zeros_11",
        "op": "Const",
        "attr": {
          "dtype": { "type": "DT_INT64" },
          "value": { "tensor": { "dtype": "DT_INT64", "tensorShape": {} } }
        }
      },
      {
        "name": "PartitionedCall/ones_5",
        "op": "Const",
        "attr": {
          "value": {
            "tensor": {
              "dtype": "DT_FLOAT",
              "tensorShape": {
                "dim": [
                  { "size": "1" },
                  { "size": "144" },
                  { "size": "8" },
                  { "size": "39" }
                ]
              }
            }
          },
          "dtype": { "type": "DT_FLOAT" }
        }
      },
      {
        "name": "PartitionedCall/onnx_tf_prefix_Constant_244",
        "op": "Const",
        "attr": {
          "dtype": { "type": "DT_FLOAT" },
          "value": { "tensor": { "dtype": "DT_FLOAT", "tensorShape": {} } }
        }
      },
      {
        "name": "PartitionedCall/clip_by_value_15/Minimum/y",
        "op": "Const",
        "attr": {
          "value": { "tensor": { "dtype": "DT_FLOAT", "tensorShape": {} } },
          "dtype": { "type": "DT_FLOAT" }
        }
      },
      {
        "name": "PartitionedCall/clip_by_value_15/y",
        "op": "Const",
        "attr": {
          "dtype": { "type": "DT_FLOAT" },
          "value": { "tensor": { "dtype": "DT_FLOAT", "tensorShape": {} } }
        }
      },
      {
        "name": "PartitionedCall/transpose_73/perm",
        "op": "Const",
        "attr": {
          "dtype": { "type": "DT_INT32" },
          "value": {
            "tensor": {
              "dtype": "DT_INT32",
              "tensorShape": { "dim": [{ "size": "4" }] }
            }
          }
        }
      },
      {
        "name": "PartitionedCall/split_22",
        "op": "Const",
        "attr": {
          "value": {
            "tensor": {
              "dtype": "DT_FLOAT",
              "tensorShape": {
                "dim": [
                  { "size": "1" },
                  { "size": "1" },
                  { "size": "144" },
                  { "size": "48" }
                ]
              }
            }
          },
          "dtype": { "type": "DT_FLOAT" }
        }
      },
      {
        "name": "PartitionedCall/transpose_74/perm",
        "op": "Const",
        "attr": {
          "dtype": { "type": "DT_INT32" },
          "value": {
            "tensor": {
              "dtype": "DT_INT32",
              "tensorShape": { "dim": [{ "size": "4" }] }
            }
          }
        }
      },
      {
        "name": "PartitionedCall/transpose_76/perm",
        "op": "Const",
        "attr": {
          "value": {
            "tensor": {
              "dtype": "DT_INT32",
              "tensorShape": { "dim": [{ "size": "4" }] }
            }
          },
          "dtype": { "type": "DT_INT32" }
        }
      },
      {
        "name": "PartitionedCall/split_23",
        "op": "Const",
        "attr": {
          "dtype": { "type": "DT_FLOAT" },
          "value": {
            "tensor": {
              "dtype": "DT_FLOAT",
              "tensorShape": {
                "dim": [
                  { "size": "1" },
                  { "size": "1" },
                  { "size": "48" },
                  { "size": "288" }
                ]
              }
            }
          }
        }
      },
      {
        "name": "PartitionedCall/transpose_77/perm",
        "op": "Const",
        "attr": {
          "value": {
            "tensor": {
              "dtype": "DT_INT32",
              "tensorShape": { "dim": [{ "size": "4" }] }
            }
          },
          "dtype": { "type": "DT_INT32" }
        }
      },
      {
        "name": "PartitionedCall/onnx_tf_prefix_Constant_253",
        "op": "Const",
        "attr": {
          "dtype": { "type": "DT_FLOAT" },
          "value": { "tensor": { "dtype": "DT_FLOAT", "tensorShape": {} } }
        }
      },
      {
        "name": "PartitionedCall/clip_by_value_16/Minimum/y",
        "op": "Const",
        "attr": {
          "value": { "tensor": { "dtype": "DT_FLOAT", "tensorShape": {} } },
          "dtype": { "type": "DT_FLOAT" }
        }
      },
      {
        "name": "PartitionedCall/clip_by_value_16/y",
        "op": "Const",
        "attr": {
          "dtype": { "type": "DT_FLOAT" },
          "value": { "tensor": { "dtype": "DT_FLOAT", "tensorShape": {} } }
        }
      },
      {
        "name": "PartitionedCall/Const_73",
        "op": "Const",
        "attr": {
          "value": {
            "tensor": {
              "dtype": "DT_INT32",
              "tensorShape": { "dim": [{ "size": "4" }, { "size": "2" }] }
            }
          },
          "dtype": { "type": "DT_INT32" }
        }
      },
      {
        "name": "PartitionedCall/transpose_79/perm",
        "op": "Const",
        "attr": {
          "dtype": { "type": "DT_INT32" },
          "value": {
            "tensor": {
              "dtype": "DT_INT32",
              "tensorShape": { "dim": [{ "size": "4" }] }
            }
          }
        }
      },
      {
        "name": "PartitionedCall/Reshape_8",
        "op": "Const",
        "attr": {
          "value": {
            "tensor": {
              "dtype": "DT_FLOAT",
              "tensorShape": {
                "dim": [
                  { "size": "5" },
                  { "size": "5" },
                  { "size": "288" },
                  { "size": "1" }
                ]
              }
            }
          },
          "dtype": { "type": "DT_FLOAT" }
        }
      },
      {
        "name": "PartitionedCall/transpose_80/perm",
        "op": "Const",
        "attr": {
          "value": {
            "tensor": {
              "dtype": "DT_INT32",
              "tensorShape": { "dim": [{ "size": "4" }] }
            }
          },
          "dtype": { "type": "DT_INT32" }
        }
      },
      {
        "name": "ConstantFolding/PartitionedCall/split_24-folded-1",
        "op": "Const",
        "attr": {
          "dtype": { "type": "DT_INT32" },
          "value": {
            "tensor": {
              "dtype": "DT_INT32",
              "tensorShape": { "dim": [{ "size": "2" }] }
            }
          }
        }
      },
      {
        "name": "PartitionedCall/onnx_tf_prefix_Concat_269",
        "op": "Const",
        "attr": {
          "value": {
            "tensor": {
              "dtype": "DT_INT64",
              "tensorShape": { "dim": [{ "size": "2" }] }
            }
          },
          "dtype": { "type": "DT_INT64" }
        }
      },
      {
        "name": "PartitionedCall/Where_12",
        "op": "Const",
        "attr": {
          "value": {
            "tensor": {
              "dtype": "DT_INT64",
              "tensorShape": { "dim": [{}, { "size": "1" }] }
            }
          },
          "dtype": { "type": "DT_INT64" }
        }
      },
      {
        "name": "PartitionedCall/Cast_12",
        "op": "Const",
        "attr": {
          "dtype": { "type": "DT_INT64" },
          "value": {
            "tensor": {
              "dtype": "DT_INT64",
              "tensorShape": { "dim": [{ "size": "1" }] }
            }
          }
        }
      },
      {
        "name": "PartitionedCall/GatherV2_12",
        "op": "Const",
        "attr": {
          "value": {
            "tensor": { "dtype": "DT_INT64", "tensorShape": { "dim": [{}] } }
          },
          "dtype": { "type": "DT_INT64" }
        }
      },
      {
        "name": "PartitionedCall/zeros_12",
        "op": "Const",
        "attr": {
          "value": { "tensor": { "dtype": "DT_INT64", "tensorShape": {} } },
          "dtype": { "type": "DT_INT64" }
        }
      },
      {
        "name": "unknown_77",
        "op": "Const",
        "attr": {
          "dtype": { "type": "DT_FLOAT" },
          "value": {
            "tensor": {
              "dtype": "DT_FLOAT",
              "tensorShape": { "dim": [{ "size": "288" }, { "size": "72" }] }
            }
          }
        }
      },
      {
        "name": "unknown_78",
        "op": "Const",
        "attr": {
          "dtype": { "type": "DT_FLOAT" },
          "value": {
            "tensor": {
              "dtype": "DT_FLOAT",
              "tensorShape": { "dim": [{ "size": "72" }, { "size": "288" }] }
            }
          }
        }
      },
      {
        "name": "PartitionedCall/onnx_tf_prefix_Constant_274",
        "op": "Const",
        "attr": {
          "dtype": { "type": "DT_FLOAT" },
          "value": { "tensor": { "dtype": "DT_FLOAT", "tensorShape": {} } }
        }
      },
      {
        "name": "PartitionedCall/clip_by_value_17/Minimum/y",
        "op": "Const",
        "attr": {
          "dtype": { "type": "DT_FLOAT" },
          "value": { "tensor": { "dtype": "DT_FLOAT", "tensorShape": {} } }
        }
      },
      {
        "name": "PartitionedCall/clip_by_value_17/y",
        "op": "Const",
        "attr": {
          "dtype": { "type": "DT_FLOAT" },
          "value": { "tensor": { "dtype": "DT_FLOAT", "tensorShape": {} } }
        }
      },
      {
        "name": "ConstantFolding/PartitionedCall/onnx_tf_prefix_Div_278_recip",
        "op": "Const",
        "attr": {
          "dtype": { "type": "DT_FLOAT" },
          "value": { "tensor": { "dtype": "DT_FLOAT", "tensorShape": {} } }
        }
      },
      {
        "name": "PartitionedCall/onnx_tf_prefix_Concat_281",
        "op": "Const",
        "attr": {
          "value": {
            "tensor": {
              "dtype": "DT_INT64",
              "tensorShape": { "dim": [{ "size": "4" }] }
            }
          },
          "dtype": { "type": "DT_INT64" }
        }
      },
      {
        "name": "PartitionedCall/Where_13",
        "op": "Const",
        "attr": {
          "value": {
            "tensor": {
              "dtype": "DT_INT64",
              "tensorShape": { "dim": [{}, { "size": "1" }] }
            }
          },
          "dtype": { "type": "DT_INT64" }
        }
      },
      {
        "name": "PartitionedCall/Cast_13",
        "op": "Const",
        "attr": {
          "dtype": { "type": "DT_INT64" },
          "value": {
            "tensor": {
              "dtype": "DT_INT64",
              "tensorShape": { "dim": [{ "size": "1" }] }
            }
          }
        }
      },
      {
        "name": "PartitionedCall/GatherV2_13",
        "op": "Const",
        "attr": {
          "dtype": { "type": "DT_INT64" },
          "value": {
            "tensor": { "dtype": "DT_INT64", "tensorShape": { "dim": [{}] } }
          }
        }
      },
      {
        "name": "PartitionedCall/zeros_13",
        "op": "Const",
        "attr": {
          "value": { "tensor": { "dtype": "DT_INT64", "tensorShape": {} } },
          "dtype": { "type": "DT_INT64" }
        }
      },
      {
        "name": "PartitionedCall/ones_6",
        "op": "Const",
        "attr": {
          "dtype": { "type": "DT_FLOAT" },
          "value": {
            "tensor": {
              "dtype": "DT_FLOAT",
              "tensorShape": {
                "dim": [
                  { "size": "1" },
                  { "size": "288" },
                  { "size": "4" },
                  { "size": "20" }
                ]
              }
            }
          }
        }
      },
      {
        "name": "PartitionedCall/onnx_tf_prefix_Constant_286",
        "op": "Const",
        "attr": {
          "value": { "tensor": { "dtype": "DT_FLOAT", "tensorShape": {} } },
          "dtype": { "type": "DT_FLOAT" }
        }
      },
      {
        "name": "PartitionedCall/clip_by_value_18/Minimum/y",
        "op": "Const",
        "attr": {
          "dtype": { "type": "DT_FLOAT" },
          "value": { "tensor": { "dtype": "DT_FLOAT", "tensorShape": {} } }
        }
      },
      {
        "name": "PartitionedCall/clip_by_value_18/y",
        "op": "Const",
        "attr": {
          "dtype": { "type": "DT_FLOAT" },
          "value": { "tensor": { "dtype": "DT_FLOAT", "tensorShape": {} } }
        }
      },
      {
        "name": "PartitionedCall/transpose_82/perm",
        "op": "Const",
        "attr": {
          "dtype": { "type": "DT_INT32" },
          "value": {
            "tensor": {
              "dtype": "DT_INT32",
              "tensorShape": { "dim": [{ "size": "4" }] }
            }
          }
        }
      },
      {
        "name": "PartitionedCall/split_25",
        "op": "Const",
        "attr": {
          "value": {
            "tensor": {
              "dtype": "DT_FLOAT",
              "tensorShape": {
                "dim": [
                  { "size": "1" },
                  { "size": "1" },
                  { "size": "288" },
                  { "size": "96" }
                ]
              }
            }
          },
          "dtype": { "type": "DT_FLOAT" }
        }
      },
      {
        "name": "PartitionedCall/split_26",
        "op": "Const",
        "attr": {
          "dtype": { "type": "DT_FLOAT" },
          "value": {
            "tensor": {
              "dtype": "DT_FLOAT",
              "tensorShape": {
                "dim": [
                  { "size": "1" },
                  { "size": "1" },
                  { "size": "96" },
                  { "size": "576" }
                ]
              }
            }
          }
        }
      },
      {
        "name": "PartitionedCall/transpose_86/perm",
        "op": "Const",
        "attr": {
          "value": {
            "tensor": {
              "dtype": "DT_INT32",
              "tensorShape": { "dim": [{ "size": "4" }] }
            }
          },
          "dtype": { "type": "DT_INT32" }
        }
      },
      {
        "name": "PartitionedCall/onnx_tf_prefix_Constant_294",
        "op": "Const",
        "attr": {
          "dtype": { "type": "DT_FLOAT" },
          "value": { "tensor": { "dtype": "DT_FLOAT", "tensorShape": {} } }
        }
      },
      {
        "name": "PartitionedCall/clip_by_value_19/Minimum/y",
        "op": "Const",
        "attr": {
          "dtype": { "type": "DT_FLOAT" },
          "value": { "tensor": { "dtype": "DT_FLOAT", "tensorShape": {} } }
        }
      },
      {
        "name": "PartitionedCall/clip_by_value_19/y",
        "op": "Const",
        "attr": {
          "value": { "tensor": { "dtype": "DT_FLOAT", "tensorShape": {} } },
          "dtype": { "type": "DT_FLOAT" }
        }
      },
      {
        "name": "PartitionedCall/Const_84",
        "op": "Const",
        "attr": {
          "value": {
            "tensor": {
              "dtype": "DT_INT32",
              "tensorShape": { "dim": [{ "size": "4" }, { "size": "2" }] }
            }
          },
          "dtype": { "type": "DT_INT32" }
        }
      },
      {
        "name": "PartitionedCall/transpose_88/perm",
        "op": "Const",
        "attr": {
          "dtype": { "type": "DT_INT32" },
          "value": {
            "tensor": {
              "dtype": "DT_INT32",
              "tensorShape": { "dim": [{ "size": "4" }] }
            }
          }
        }
      },
      {
        "name": "PartitionedCall/Reshape_9",
        "op": "Const",
        "attr": {
          "dtype": { "type": "DT_FLOAT" },
          "value": {
            "tensor": {
              "dtype": "DT_FLOAT",
              "tensorShape": {
                "dim": [
                  { "size": "5" },
                  { "size": "5" },
                  { "size": "576" },
                  { "size": "1" }
                ]
              }
            }
          }
        }
      },
      {
        "name": "PartitionedCall/transpose_89/perm",
        "op": "Const",
        "attr": {
          "value": {
            "tensor": {
              "dtype": "DT_INT32",
              "tensorShape": { "dim": [{ "size": "4" }] }
            }
          },
          "dtype": { "type": "DT_INT32" }
        }
      },
      {
        "name": "ConstantFolding/PartitionedCall/split_27-folded-1",
        "op": "Const",
        "attr": {
          "dtype": { "type": "DT_INT32" },
          "value": {
            "tensor": {
              "dtype": "DT_INT32",
              "tensorShape": { "dim": [{ "size": "2" }] }
            }
          }
        }
      },
      {
        "name": "PartitionedCall/onnx_tf_prefix_Concat_310",
        "op": "Const",
        "attr": {
          "dtype": { "type": "DT_INT64" },
          "value": {
            "tensor": {
              "dtype": "DT_INT64",
              "tensorShape": { "dim": [{ "size": "2" }] }
            }
          }
        }
      },
      {
        "name": "PartitionedCall/Where_14",
        "op": "Const",
        "attr": {
          "dtype": { "type": "DT_INT64" },
          "value": {
            "tensor": {
              "dtype": "DT_INT64",
              "tensorShape": { "dim": [{}, { "size": "1" }] }
            }
          }
        }
      },
      {
        "name": "PartitionedCall/Cast_14",
        "op": "Const",
        "attr": {
          "dtype": { "type": "DT_INT64" },
          "value": {
            "tensor": {
              "dtype": "DT_INT64",
              "tensorShape": { "dim": [{ "size": "1" }] }
            }
          }
        }
      },
      {
        "name": "PartitionedCall/GatherV2_14",
        "op": "Const",
        "attr": {
          "value": {
            "tensor": { "dtype": "DT_INT64", "tensorShape": { "dim": [{}] } }
          },
          "dtype": { "type": "DT_INT64" }
        }
      },
      {
        "name": "PartitionedCall/zeros_14",
        "op": "Const",
        "attr": {
          "dtype": { "type": "DT_INT64" },
          "value": { "tensor": { "dtype": "DT_INT64", "tensorShape": {} } }
        }
      },
      {
        "name": "unknown_87",
        "op": "Const",
        "attr": {
          "dtype": { "type": "DT_FLOAT" },
          "value": {
            "tensor": {
              "dtype": "DT_FLOAT",
              "tensorShape": { "dim": [{ "size": "576" }, { "size": "144" }] }
            }
          }
        }
      },
      {
        "name": "unknown_88",
        "op": "Const",
        "attr": {
          "dtype": { "type": "DT_FLOAT" },
          "value": {
            "tensor": {
              "dtype": "DT_FLOAT",
              "tensorShape": { "dim": [{ "size": "144" }, { "size": "576" }] }
            }
          }
        }
      },
      {
        "name": "PartitionedCall/onnx_tf_prefix_Constant_315",
        "op": "Const",
        "attr": {
          "value": { "tensor": { "dtype": "DT_FLOAT", "tensorShape": {} } },
          "dtype": { "type": "DT_FLOAT" }
        }
      },
      {
        "name": "PartitionedCall/clip_by_value_20/Minimum/y",
        "op": "Const",
        "attr": {
          "dtype": { "type": "DT_FLOAT" },
          "value": { "tensor": { "dtype": "DT_FLOAT", "tensorShape": {} } }
        }
      },
      {
        "name": "PartitionedCall/clip_by_value_20/y",
        "op": "Const",
        "attr": {
          "dtype": { "type": "DT_FLOAT" },
          "value": { "tensor": { "dtype": "DT_FLOAT", "tensorShape": {} } }
        }
      },
      {
        "name": "ConstantFolding/PartitionedCall/onnx_tf_prefix_Div_319_recip",
        "op": "Const",
        "attr": {
          "dtype": { "type": "DT_FLOAT" },
          "value": { "tensor": { "dtype": "DT_FLOAT", "tensorShape": {} } }
        }
      },
      {
        "name": "PartitionedCall/onnx_tf_prefix_Concat_322",
        "op": "Const",
        "attr": {
          "dtype": { "type": "DT_INT64" },
          "value": {
            "tensor": {
              "dtype": "DT_INT64",
              "tensorShape": { "dim": [{ "size": "4" }] }
            }
          }
        }
      },
      {
        "name": "PartitionedCall/Where_15",
        "op": "Const",
        "attr": {
          "value": {
            "tensor": {
              "dtype": "DT_INT64",
              "tensorShape": { "dim": [{}, { "size": "1" }] }
            }
          },
          "dtype": { "type": "DT_INT64" }
        }
      },
      {
        "name": "PartitionedCall/Cast_15",
        "op": "Const",
        "attr": {
          "dtype": { "type": "DT_INT64" },
          "value": {
            "tensor": {
              "dtype": "DT_INT64",
              "tensorShape": { "dim": [{ "size": "1" }] }
            }
          }
        }
      },
      {
        "name": "PartitionedCall/GatherV2_15",
        "op": "Const",
        "attr": {
          "dtype": { "type": "DT_INT64" },
          "value": {
            "tensor": { "dtype": "DT_INT64", "tensorShape": { "dim": [{}] } }
          }
        }
      },
      {
        "name": "PartitionedCall/zeros_15",
        "op": "Const",
        "attr": {
          "value": { "tensor": { "dtype": "DT_INT64", "tensorShape": {} } },
          "dtype": { "type": "DT_INT64" }
        }
      },
      {
        "name": "PartitionedCall/ones_7",
        "op": "Const",
        "attr": {
          "dtype": { "type": "DT_FLOAT" },
          "value": {
            "tensor": {
              "dtype": "DT_FLOAT",
              "tensorShape": {
                "dim": [
                  { "size": "1" },
                  { "size": "576" },
                  { "size": "4" },
                  { "size": "20" }
                ]
              }
            }
          }
        }
      },
      {
        "name": "PartitionedCall/onnx_tf_prefix_Constant_327",
        "op": "Const",
        "attr": {
          "value": { "tensor": { "dtype": "DT_FLOAT", "tensorShape": {} } },
          "dtype": { "type": "DT_FLOAT" }
        }
      },
      {
        "name": "PartitionedCall/clip_by_value_21/Minimum/y",
        "op": "Const",
        "attr": {
          "dtype": { "type": "DT_FLOAT" },
          "value": { "tensor": { "dtype": "DT_FLOAT", "tensorShape": {} } }
        }
      },
      {
        "name": "PartitionedCall/clip_by_value_21/y",
        "op": "Const",
        "attr": {
          "dtype": { "type": "DT_FLOAT" },
          "value": { "tensor": { "dtype": "DT_FLOAT", "tensorShape": {} } }
        }
      },
      {
        "name": "PartitionedCall/transpose_91/perm",
        "op": "Const",
        "attr": {
          "dtype": { "type": "DT_INT32" },
          "value": {
            "tensor": {
              "dtype": "DT_INT32",
              "tensorShape": { "dim": [{ "size": "4" }] }
            }
          }
        }
      },
      {
        "name": "PartitionedCall/split_28",
        "op": "Const",
        "attr": {
          "value": {
            "tensor": {
              "dtype": "DT_FLOAT",
              "tensorShape": {
                "dim": [
                  { "size": "1" },
                  { "size": "1" },
                  { "size": "576" },
                  { "size": "96" }
                ]
              }
            }
          },
          "dtype": { "type": "DT_FLOAT" }
        }
      },
      {
        "name": "PartitionedCall/transpose_92/perm",
        "op": "Const",
        "attr": {
          "dtype": { "type": "DT_INT32" },
          "value": {
            "tensor": {
              "dtype": "DT_INT32",
              "tensorShape": { "dim": [{ "size": "4" }] }
            }
          }
        }
      },
      {
        "name": "PartitionedCall/transpose_94/perm",
        "op": "Const",
        "attr": {
          "dtype": { "type": "DT_INT32" },
          "value": {
            "tensor": {
              "dtype": "DT_INT32",
              "tensorShape": { "dim": [{ "size": "4" }] }
            }
          }
        }
      },
      {
        "name": "PartitionedCall/split_29",
        "op": "Const",
        "attr": {
          "value": {
            "tensor": {
              "dtype": "DT_FLOAT",
              "tensorShape": {
                "dim": [
                  { "size": "1" },
                  { "size": "1" },
                  { "size": "96" },
                  { "size": "576" }
                ]
              }
            }
          },
          "dtype": { "type": "DT_FLOAT" }
        }
      },
      {
        "name": "PartitionedCall/transpose_95/perm",
        "op": "Const",
        "attr": {
          "dtype": { "type": "DT_INT32" },
          "value": {
            "tensor": {
              "dtype": "DT_INT32",
              "tensorShape": { "dim": [{ "size": "4" }] }
            }
          }
        }
      },
      {
        "name": "PartitionedCall/onnx_tf_prefix_Constant_336",
        "op": "Const",
        "attr": {
          "dtype": { "type": "DT_FLOAT" },
          "value": { "tensor": { "dtype": "DT_FLOAT", "tensorShape": {} } }
        }
      },
      {
        "name": "PartitionedCall/clip_by_value_22/Minimum/y",
        "op": "Const",
        "attr": {
          "value": { "tensor": { "dtype": "DT_FLOAT", "tensorShape": {} } },
          "dtype": { "type": "DT_FLOAT" }
        }
      },
      {
        "name": "PartitionedCall/clip_by_value_22/y",
        "op": "Const",
        "attr": {
          "value": { "tensor": { "dtype": "DT_FLOAT", "tensorShape": {} } },
          "dtype": { "type": "DT_FLOAT" }
        }
      },
      {
        "name": "PartitionedCall/Const_95",
        "op": "Const",
        "attr": {
          "value": {
            "tensor": {
              "dtype": "DT_INT32",
              "tensorShape": { "dim": [{ "size": "4" }, { "size": "2" }] }
            }
          },
          "dtype": { "type": "DT_INT32" }
        }
      },
      {
        "name": "PartitionedCall/transpose_97/perm",
        "op": "Const",
        "attr": {
          "dtype": { "type": "DT_INT32" },
          "value": {
            "tensor": {
              "dtype": "DT_INT32",
              "tensorShape": { "dim": [{ "size": "4" }] }
            }
          }
        }
      },
      {
        "name": "PartitionedCall/Reshape_10",
        "op": "Const",
        "attr": {
          "dtype": { "type": "DT_FLOAT" },
          "value": {
            "tensor": {
              "dtype": "DT_FLOAT",
              "tensorShape": {
                "dim": [
                  { "size": "5" },
                  { "size": "5" },
                  { "size": "576" },
                  { "size": "1" }
                ]
              }
            }
          }
        }
      },
      {
        "name": "PartitionedCall/transpose_98/perm",
        "op": "Const",
        "attr": {
          "value": {
            "tensor": {
              "dtype": "DT_INT32",
              "tensorShape": { "dim": [{ "size": "4" }] }
            }
          },
          "dtype": { "type": "DT_INT32" }
        }
      },
      {
        "name": "ConstantFolding/PartitionedCall/split_30-folded-1",
        "op": "Const",
        "attr": {
          "dtype": { "type": "DT_INT32" },
          "value": {
            "tensor": {
              "dtype": "DT_INT32",
              "tensorShape": { "dim": [{ "size": "2" }] }
            }
          }
        }
      },
      {
        "name": "PartitionedCall/onnx_tf_prefix_Concat_352",
        "op": "Const",
        "attr": {
          "value": {
            "tensor": {
              "dtype": "DT_INT64",
              "tensorShape": { "dim": [{ "size": "2" }] }
            }
          },
          "dtype": { "type": "DT_INT64" }
        }
      },
      {
        "name": "PartitionedCall/Where_16",
        "op": "Const",
        "attr": {
          "dtype": { "type": "DT_INT64" },
          "value": {
            "tensor": {
              "dtype": "DT_INT64",
              "tensorShape": { "dim": [{}, { "size": "1" }] }
            }
          }
        }
      },
      {
        "name": "PartitionedCall/Cast_16",
        "op": "Const",
        "attr": {
          "value": {
            "tensor": {
              "dtype": "DT_INT64",
              "tensorShape": { "dim": [{ "size": "1" }] }
            }
          },
          "dtype": { "type": "DT_INT64" }
        }
      },
      {
        "name": "PartitionedCall/GatherV2_16",
        "op": "Const",
        "attr": {
          "value": {
            "tensor": { "dtype": "DT_INT64", "tensorShape": { "dim": [{}] } }
          },
          "dtype": { "type": "DT_INT64" }
        }
      },
      {
        "name": "PartitionedCall/zeros_16",
        "op": "Const",
        "attr": {
          "value": { "tensor": { "dtype": "DT_INT64", "tensorShape": {} } },
          "dtype": { "type": "DT_INT64" }
        }
      },
      {
        "name": "unknown_97",
        "op": "Const",
        "attr": {
          "value": {
            "tensor": {
              "dtype": "DT_FLOAT",
              "tensorShape": { "dim": [{ "size": "576" }, { "size": "144" }] }
            }
          },
          "dtype": { "type": "DT_FLOAT" }
        }
      },
      {
        "name": "unknown_98",
        "op": "Const",
        "attr": {
          "value": {
            "tensor": {
              "dtype": "DT_FLOAT",
              "tensorShape": { "dim": [{ "size": "144" }, { "size": "576" }] }
            }
          },
          "dtype": { "type": "DT_FLOAT" }
        }
      },
      {
        "name": "PartitionedCall/onnx_tf_prefix_Constant_357",
        "op": "Const",
        "attr": {
          "dtype": { "type": "DT_FLOAT" },
          "value": { "tensor": { "dtype": "DT_FLOAT", "tensorShape": {} } }
        }
      },
      {
        "name": "PartitionedCall/clip_by_value_23/Minimum/y",
        "op": "Const",
        "attr": {
          "value": { "tensor": { "dtype": "DT_FLOAT", "tensorShape": {} } },
          "dtype": { "type": "DT_FLOAT" }
        }
      },
      {
        "name": "PartitionedCall/clip_by_value_23/y",
        "op": "Const",
        "attr": {
          "dtype": { "type": "DT_FLOAT" },
          "value": { "tensor": { "dtype": "DT_FLOAT", "tensorShape": {} } }
        }
      },
      {
        "name": "ConstantFolding/PartitionedCall/onnx_tf_prefix_Div_361_recip",
        "op": "Const",
        "attr": {
          "dtype": { "type": "DT_FLOAT" },
          "value": { "tensor": { "dtype": "DT_FLOAT", "tensorShape": {} } }
        }
      },
      {
        "name": "PartitionedCall/onnx_tf_prefix_Concat_364",
        "op": "Const",
        "attr": {
          "value": {
            "tensor": {
              "dtype": "DT_INT64",
              "tensorShape": { "dim": [{ "size": "4" }] }
            }
          },
          "dtype": { "type": "DT_INT64" }
        }
      },
      {
        "name": "PartitionedCall/Where_17",
        "op": "Const",
        "attr": {
          "dtype": { "type": "DT_INT64" },
          "value": {
            "tensor": {
              "dtype": "DT_INT64",
              "tensorShape": { "dim": [{}, { "size": "1" }] }
            }
          }
        }
      },
      {
        "name": "PartitionedCall/Cast_17",
        "op": "Const",
        "attr": {
          "value": {
            "tensor": {
              "dtype": "DT_INT64",
              "tensorShape": { "dim": [{ "size": "1" }] }
            }
          },
          "dtype": { "type": "DT_INT64" }
        }
      },
      {
        "name": "PartitionedCall/GatherV2_17",
        "op": "Const",
        "attr": {
          "value": {
            "tensor": { "dtype": "DT_INT64", "tensorShape": { "dim": [{}] } }
          },
          "dtype": { "type": "DT_INT64" }
        }
      },
      {
        "name": "PartitionedCall/zeros_17",
        "op": "Const",
        "attr": {
          "value": { "tensor": { "dtype": "DT_INT64", "tensorShape": {} } },
          "dtype": { "type": "DT_INT64" }
        }
      },
      {
        "name": "PartitionedCall/ones_8",
        "op": "Const",
        "attr": {
          "dtype": { "type": "DT_FLOAT" },
          "value": {
            "tensor": {
              "dtype": "DT_FLOAT",
              "tensorShape": {
                "dim": [
                  { "size": "1" },
                  { "size": "576" },
                  { "size": "4" },
                  { "size": "20" }
                ]
              }
            }
          }
        }
      },
      {
        "name": "PartitionedCall/onnx_tf_prefix_Constant_369",
        "op": "Const",
        "attr": {
          "dtype": { "type": "DT_FLOAT" },
          "value": { "tensor": { "dtype": "DT_FLOAT", "tensorShape": {} } }
        }
      },
      {
        "name": "PartitionedCall/clip_by_value_24/Minimum/y",
        "op": "Const",
        "attr": {
          "dtype": { "type": "DT_FLOAT" },
          "value": { "tensor": { "dtype": "DT_FLOAT", "tensorShape": {} } }
        }
      },
      {
        "name": "PartitionedCall/clip_by_value_24/y",
        "op": "Const",
        "attr": {
          "dtype": { "type": "DT_FLOAT" },
          "value": { "tensor": { "dtype": "DT_FLOAT", "tensorShape": {} } }
        }
      },
      {
        "name": "PartitionedCall/transpose_100/perm",
        "op": "Const",
        "attr": {
          "dtype": { "type": "DT_INT32" },
          "value": {
            "tensor": {
              "dtype": "DT_INT32",
              "tensorShape": { "dim": [{ "size": "4" }] }
            }
          }
        }
      },
      {
        "name": "PartitionedCall/split_31",
        "op": "Const",
        "attr": {
          "value": {
            "tensor": {
              "dtype": "DT_FLOAT",
              "tensorShape": {
                "dim": [
                  { "size": "1" },
                  { "size": "1" },
                  { "size": "576" },
                  { "size": "96" }
                ]
              }
            }
          },
          "dtype": { "type": "DT_FLOAT" }
        }
      },
      {
        "name": "PartitionedCall/transpose_101/perm",
        "op": "Const",
        "attr": {
          "dtype": { "type": "DT_INT32" },
          "value": {
            "tensor": {
              "dtype": "DT_INT32",
              "tensorShape": { "dim": [{ "size": "4" }] }
            }
          }
        }
      },
      {
        "name": "PartitionedCall/transpose_103/perm",
        "op": "Const",
        "attr": {
          "value": {
            "tensor": {
              "dtype": "DT_INT32",
              "tensorShape": { "dim": [{ "size": "4" }] }
            }
          },
          "dtype": { "type": "DT_INT32" }
        }
      },
      {
        "name": "PartitionedCall/split_32",
        "op": "Const",
        "attr": {
          "value": {
            "tensor": {
              "dtype": "DT_FLOAT",
              "tensorShape": {
                "dim": [
                  { "size": "1" },
                  { "size": "1" },
                  { "size": "96" },
                  { "size": "576" }
                ]
              }
            }
          },
          "dtype": { "type": "DT_FLOAT" }
        }
      },
      {
        "name": "PartitionedCall/transpose_104/perm",
        "op": "Const",
        "attr": {
          "value": {
            "tensor": {
              "dtype": "DT_INT32",
              "tensorShape": { "dim": [{ "size": "4" }] }
            }
          },
          "dtype": { "type": "DT_INT32" }
        }
      },
      {
        "name": "ConstantFolding/PartitionedCall/split_33-folded-1",
        "op": "Const",
        "attr": {
          "dtype": { "type": "DT_INT32" },
          "value": {
            "tensor": {
              "dtype": "DT_INT32",
              "tensorShape": { "dim": [{ "size": "2" }] }
            }
          }
        }
      },
      {
        "name": "PartitionedCall/transpose_106/perm",
        "op": "Const",
        "attr": {
          "value": {
            "tensor": {
              "dtype": "DT_INT32",
              "tensorShape": { "dim": [{ "size": "4" }] }
            }
          },
          "dtype": { "type": "DT_INT32" }
        }
      },
      {
        "name": "PartitionedCall/split_34",
        "op": "Const",
        "attr": {
          "dtype": { "type": "DT_FLOAT" },
          "value": {
            "tensor": {
              "dtype": "DT_FLOAT",
              "tensorShape": {
                "dim": [
                  { "size": "1" },
                  { "size": "1" },
                  { "size": "576" },
                  { "size": "60" }
                ]
              }
            }
          }
        }
      },
      {
        "name": "PartitionedCall/transpose_107/perm",
        "op": "Const",
        "attr": {
          "value": {
            "tensor": {
              "dtype": "DT_INT32",
              "tensorShape": { "dim": [{ "size": "4" }] }
            }
          },
          "dtype": { "type": "DT_INT32" }
        }
      },
      {
        "name": "input_1",
        "op": "Placeholder",
        "attr": {
          "shape": {
            "shape": {
              "dim": [
                { "size": "1" },
                { "size": "1" },
                { "size": "128" },
                { "size": "624" }
              ]
            }
          },
          "dtype": { "type": "DT_FLOAT" }
        }
      },
      {
        "name": "PartitionedCall/SparseToDense",
        "op": "SparseToDense",
        "input": [
          "PartitionedCall/Where",
          "PartitionedCall/Cast",
          "PartitionedCall/GatherV2",
          "PartitionedCall/zeros"
        ],
        "attr": {
          "T": { "type": "DT_INT64" },
          "validate_indices": { "b": true },
          "Tindices": { "type": "DT_INT64" }
        }
      },
      {
        "name": "PartitionedCall/SparseToDense_1",
        "op": "SparseToDense",
        "input": [
          "PartitionedCall/Where_1",
          "PartitionedCall/Cast_1",
          "PartitionedCall/GatherV2_1",
          "PartitionedCall/zeros_1"
        ],
        "attr": {
          "validate_indices": { "b": true },
          "Tindices": { "type": "DT_INT64" },
          "T": { "type": "DT_INT64" }
        }
      },
      {
        "name": "PartitionedCall/SparseToDense_2",
        "op": "SparseToDense",
        "input": [
          "PartitionedCall/Where_2",
          "PartitionedCall/Cast_2",
          "PartitionedCall/GatherV2_2",
          "PartitionedCall/zeros_2"
        ],
        "attr": {
          "T": { "type": "DT_INT64" },
          "Tindices": { "type": "DT_INT64" },
          "validate_indices": { "b": true }
        }
      },
      {
        "name": "PartitionedCall/SparseToDense_3",
        "op": "SparseToDense",
        "input": [
          "PartitionedCall/Where_3",
          "PartitionedCall/Cast_3",
          "PartitionedCall/GatherV2_3",
          "PartitionedCall/zeros_3"
        ],
        "attr": {
          "T": { "type": "DT_INT64" },
          "Tindices": { "type": "DT_INT64" },
          "validate_indices": { "b": true }
        }
      },
      {
        "name": "PartitionedCall/SparseToDense_4",
        "op": "SparseToDense",
        "input": [
          "PartitionedCall/Where_4",
          "PartitionedCall/Cast_4",
          "PartitionedCall/GatherV2_4",
          "PartitionedCall/zeros_4"
        ],
        "attr": {
          "Tindices": { "type": "DT_INT64" },
          "validate_indices": { "b": true },
          "T": { "type": "DT_INT64" }
        }
      },
      {
        "name": "PartitionedCall/SparseToDense_5",
        "op": "SparseToDense",
        "input": [
          "PartitionedCall/Where_5",
          "PartitionedCall/Cast_5",
          "PartitionedCall/GatherV2_5",
          "PartitionedCall/zeros_5"
        ],
        "attr": {
          "T": { "type": "DT_INT64" },
          "validate_indices": { "b": true },
          "Tindices": { "type": "DT_INT64" }
        }
      },
      {
        "name": "PartitionedCall/SparseToDense_6",
        "op": "SparseToDense",
        "input": [
          "PartitionedCall/Where_6",
          "PartitionedCall/Cast_6",
          "PartitionedCall/GatherV2_6",
          "PartitionedCall/zeros_6"
        ],
        "attr": {
          "validate_indices": { "b": true },
          "T": { "type": "DT_INT64" },
          "Tindices": { "type": "DT_INT64" }
        }
      },
      {
        "name": "PartitionedCall/SparseToDense_7",
        "op": "SparseToDense",
        "input": [
          "PartitionedCall/Where_7",
          "PartitionedCall/Cast_7",
          "PartitionedCall/GatherV2_7",
          "PartitionedCall/zeros_7"
        ],
        "attr": {
          "validate_indices": { "b": true },
          "Tindices": { "type": "DT_INT64" },
          "T": { "type": "DT_INT64" }
        }
      },
      {
        "name": "PartitionedCall/SparseToDense_8",
        "op": "SparseToDense",
        "input": [
          "PartitionedCall/Where_8",
          "PartitionedCall/Cast_8",
          "PartitionedCall/GatherV2_8",
          "PartitionedCall/zeros_8"
        ],
        "attr": {
          "validate_indices": { "b": true },
          "T": { "type": "DT_INT64" },
          "Tindices": { "type": "DT_INT64" }
        }
      },
      {
        "name": "PartitionedCall/SparseToDense_9",
        "op": "SparseToDense",
        "input": [
          "PartitionedCall/Where_9",
          "PartitionedCall/Cast_9",
          "PartitionedCall/GatherV2_9",
          "PartitionedCall/zeros_9"
        ],
        "attr": {
          "T": { "type": "DT_INT64" },
          "validate_indices": { "b": true },
          "Tindices": { "type": "DT_INT64" }
        }
      },
      {
        "name": "PartitionedCall/SparseToDense_10",
        "op": "SparseToDense",
        "input": [
          "PartitionedCall/Where_10",
          "PartitionedCall/Cast_10",
          "PartitionedCall/GatherV2_10",
          "PartitionedCall/zeros_10"
        ],
        "attr": {
          "Tindices": { "type": "DT_INT64" },
          "validate_indices": { "b": true },
          "T": { "type": "DT_INT64" }
        }
      },
      {
        "name": "PartitionedCall/SparseToDense_11",
        "op": "SparseToDense",
        "input": [
          "PartitionedCall/Where_11",
          "PartitionedCall/Cast_11",
          "PartitionedCall/GatherV2_11",
          "PartitionedCall/zeros_11"
        ],
        "attr": {
          "T": { "type": "DT_INT64" },
          "Tindices": { "type": "DT_INT64" },
          "validate_indices": { "b": true }
        }
      },
      {
        "name": "PartitionedCall/SparseToDense_12",
        "op": "SparseToDense",
        "input": [
          "PartitionedCall/Where_12",
          "PartitionedCall/Cast_12",
          "PartitionedCall/GatherV2_12",
          "PartitionedCall/zeros_12"
        ],
        "attr": {
          "T": { "type": "DT_INT64" },
          "Tindices": { "type": "DT_INT64" },
          "validate_indices": { "b": true }
        }
      },
      {
        "name": "PartitionedCall/SparseToDense_13",
        "op": "SparseToDense",
        "input": [
          "PartitionedCall/Where_13",
          "PartitionedCall/Cast_13",
          "PartitionedCall/GatherV2_13",
          "PartitionedCall/zeros_13"
        ],
        "attr": {
          "validate_indices": { "b": true },
          "Tindices": { "type": "DT_INT64" },
          "T": { "type": "DT_INT64" }
        }
      },
      {
        "name": "PartitionedCall/SparseToDense_14",
        "op": "SparseToDense",
        "input": [
          "PartitionedCall/Where_14",
          "PartitionedCall/Cast_14",
          "PartitionedCall/GatherV2_14",
          "PartitionedCall/zeros_14"
        ],
        "attr": {
          "T": { "type": "DT_INT64" },
          "validate_indices": { "b": true },
          "Tindices": { "type": "DT_INT64" }
        }
      },
      {
        "name": "PartitionedCall/SparseToDense_15",
        "op": "SparseToDense",
        "input": [
          "PartitionedCall/Where_15",
          "PartitionedCall/Cast_15",
          "PartitionedCall/GatherV2_15",
          "PartitionedCall/zeros_15"
        ],
        "attr": {
          "T": { "type": "DT_INT64" },
          "Tindices": { "type": "DT_INT64" },
          "validate_indices": { "b": true }
        }
      },
      {
        "name": "PartitionedCall/SparseToDense_16",
        "op": "SparseToDense",
        "input": [
          "PartitionedCall/Where_16",
          "PartitionedCall/Cast_16",
          "PartitionedCall/GatherV2_16",
          "PartitionedCall/zeros_16"
        ],
        "attr": {
          "Tindices": { "type": "DT_INT64" },
          "validate_indices": { "b": true },
          "T": { "type": "DT_INT64" }
        }
      },
      {
        "name": "PartitionedCall/SparseToDense_17",
        "op": "SparseToDense",
        "input": [
          "PartitionedCall/Where_17",
          "PartitionedCall/Cast_17",
          "PartitionedCall/GatherV2_17",
          "PartitionedCall/zeros_17"
        ],
        "attr": {
          "Tindices": { "type": "DT_INT64" },
          "validate_indices": { "b": true },
          "T": { "type": "DT_INT64" }
        }
      },
      {
        "name": "PartitionedCall/Pad",
        "op": "Pad",
        "input": ["input_1", "PartitionedCall/Const"],
        "attr": {
          "Tpaddings": { "type": "DT_INT32" },
          "T": { "type": "DT_FLOAT" }
        }
      },
      {
        "name": "PartitionedCall/add_3",
        "op": "AddV2",
        "input": [
          "PartitionedCall/onnx_tf_prefix_Concat_14",
          "PartitionedCall/SparseToDense"
        ],
        "attr": { "T": { "type": "DT_INT64" } }
      },
      {
        "name": "PartitionedCall/add_4",
        "op": "AddV2",
        "input": [
          "PartitionedCall/onnx_tf_prefix_Concat_26",
          "PartitionedCall/SparseToDense_1"
        ],
        "attr": { "T": { "type": "DT_INT64" } }
      },
      {
        "name": "PartitionedCall/add_14",
        "op": "AddV2",
        "input": [
          "PartitionedCall/onnx_tf_prefix_Concat_61",
          "PartitionedCall/SparseToDense_2"
        ],
        "attr": { "T": { "type": "DT_INT64" } }
      },
      {
        "name": "PartitionedCall/add_15",
        "op": "AddV2",
        "input": [
          "PartitionedCall/onnx_tf_prefix_Concat_73",
          "PartitionedCall/SparseToDense_3"
        ],
        "attr": { "T": { "type": "DT_INT64" } }
      },
      {
        "name": "PartitionedCall/add_19",
        "op": "AddV2",
        "input": [
          "PartitionedCall/onnx_tf_prefix_Concat_102",
          "PartitionedCall/SparseToDense_4"
        ],
        "attr": { "T": { "type": "DT_INT64" } }
      },
      {
        "name": "PartitionedCall/add_20",
        "op": "AddV2",
        "input": [
          "PartitionedCall/onnx_tf_prefix_Concat_114",
          "PartitionedCall/SparseToDense_5"
        ],
        "attr": { "T": { "type": "DT_INT64" } }
      },
      {
        "name": "PartitionedCall/add_24",
        "op": "AddV2",
        "input": [
          "PartitionedCall/onnx_tf_prefix_Concat_144",
          "PartitionedCall/SparseToDense_6"
        ],
        "attr": { "T": { "type": "DT_INT64" } }
      },
      {
        "name": "PartitionedCall/add_25",
        "op": "AddV2",
        "input": [
          "PartitionedCall/onnx_tf_prefix_Concat_156",
          "PartitionedCall/SparseToDense_7"
        ],
        "attr": { "T": { "type": "DT_INT64" } }
      },
      {
        "name": "PartitionedCall/add_29",
        "op": "AddV2",
        "input": [
          "PartitionedCall/onnx_tf_prefix_Concat_186",
          "PartitionedCall/SparseToDense_8"
        ],
        "attr": { "T": { "type": "DT_INT64" } }
      },
      {
        "name": "PartitionedCall/add_30",
        "op": "AddV2",
        "input": [
          "PartitionedCall/onnx_tf_prefix_Concat_198",
          "PartitionedCall/SparseToDense_9"
        ],
        "attr": { "T": { "type": "DT_INT64" } }
      },
      {
        "name": "PartitionedCall/add_34",
        "op": "AddV2",
        "input": [
          "PartitionedCall/onnx_tf_prefix_Concat_227",
          "PartitionedCall/SparseToDense_10"
        ],
        "attr": { "T": { "type": "DT_INT64" } }
      },
      {
        "name": "PartitionedCall/add_35",
        "op": "AddV2",
        "input": [
          "PartitionedCall/onnx_tf_prefix_Concat_239",
          "PartitionedCall/SparseToDense_11"
        ],
        "attr": { "T": { "type": "DT_INT64" } }
      },
      {
        "name": "PartitionedCall/add_39",
        "op": "AddV2",
        "input": [
          "PartitionedCall/onnx_tf_prefix_Concat_269",
          "PartitionedCall/SparseToDense_12"
        ],
        "attr": { "T": { "type": "DT_INT64" } }
      },
      {
        "name": "PartitionedCall/add_40",
        "op": "AddV2",
        "input": [
          "PartitionedCall/onnx_tf_prefix_Concat_281",
          "PartitionedCall/SparseToDense_13"
        ],
        "attr": { "T": { "type": "DT_INT64" } }
      },
      {
        "name": "PartitionedCall/add_44",
        "op": "AddV2",
        "input": [
          "PartitionedCall/onnx_tf_prefix_Concat_310",
          "PartitionedCall/SparseToDense_14"
        ],
        "attr": { "T": { "type": "DT_INT64" } }
      },
      {
        "name": "PartitionedCall/add_45",
        "op": "AddV2",
        "input": [
          "PartitionedCall/onnx_tf_prefix_Concat_322",
          "PartitionedCall/SparseToDense_15"
        ],
        "attr": { "T": { "type": "DT_INT64" } }
      },
      {
        "name": "PartitionedCall/add_49",
        "op": "AddV2",
        "input": [
          "PartitionedCall/onnx_tf_prefix_Concat_352",
          "PartitionedCall/SparseToDense_16"
        ],
        "attr": { "T": { "type": "DT_INT64" } }
      },
      {
        "name": "PartitionedCall/add_50",
        "op": "AddV2",
        "input": [
          "PartitionedCall/onnx_tf_prefix_Concat_364",
          "PartitionedCall/SparseToDense_17"
        ],
        "attr": { "T": { "type": "DT_INT64" } }
      },
      {
        "name": "PartitionedCall/transpose_1",
        "op": "Transpose",
        "input": ["PartitionedCall/Pad", "PartitionedCall/transpose_1/perm"],
        "attr": { "T": { "type": "DT_FLOAT" }, "Tperm": { "type": "DT_INT32" } }
      },
      {
        "name": "PartitionedCall/convolution",
        "op": "Conv2D",
        "input": ["PartitionedCall/transpose_1", "PartitionedCall/split"],
        "device": "/device:CPU:0",
        "attr": {
          "data_format": { "s": "TkhXQw==" },
          "use_cudnn_on_gpu": { "b": true },
          "padding": { "s": "VkFMSUQ=" },
          "T": { "type": "DT_FLOAT" },
          "dilations": { "list": { "i": ["1", "1", "1", "1"] } },
          "explicit_paddings": { "list": {} },
          "strides": { "list": { "i": ["1", "2", "2", "1"] } }
        }
      },
      {
        "name": "PartitionedCall/transpose_2",
        "op": "Transpose",
        "input": [
          "PartitionedCall/convolution",
          "PartitionedCall/transpose_2/perm"
        ],
        "attr": { "T": { "type": "DT_FLOAT" }, "Tperm": { "type": "DT_INT32" } }
      },
      {
        "name": "PartitionedCall/onnx_tf_prefix_Relu_1",
        "op": "Relu",
        "input": ["PartitionedCall/transpose_2"],
        "attr": { "T": { "type": "DT_FLOAT" } }
      },
      {
        "name": "PartitionedCall/transpose_4",
        "op": "Transpose",
        "input": [
          "PartitionedCall/onnx_tf_prefix_Relu_1",
          "PartitionedCall/transpose_4/perm"
        ],
        "attr": { "Tperm": { "type": "DT_INT32" }, "T": { "type": "DT_FLOAT" } }
      },
      {
        "name": "PartitionedCall/convolution_1",
        "op": "Conv2D",
        "input": ["PartitionedCall/transpose_4", "PartitionedCall/split_1"],
        "device": "/device:CPU:0",
        "attr": {
          "explicit_paddings": { "list": {} },
          "data_format": { "s": "TkhXQw==" },
          "T": { "type": "DT_FLOAT" },
          "use_cudnn_on_gpu": { "b": true },
          "strides": { "list": { "i": ["1", "1", "1", "1"] } },
          "padding": { "s": "VkFMSUQ=" },
          "dilations": { "list": { "i": ["1", "1", "1", "1"] } }
        }
      },
      {
        "name": "PartitionedCall/transpose_5",
        "op": "Transpose",
        "input": [
          "PartitionedCall/convolution_1",
          "PartitionedCall/transpose_5/perm"
        ],
        "attr": { "Tperm": { "type": "DT_INT32" }, "T": { "type": "DT_FLOAT" } }
      },
      {
        "name": "PartitionedCall/onnx_tf_prefix_Relu_3",
        "op": "Relu",
        "input": ["PartitionedCall/transpose_5"],
        "attr": { "T": { "type": "DT_FLOAT" } }
      },
      {
        "name": "PartitionedCall/Pad_1",
        "op": "Pad",
        "input": [
          "PartitionedCall/onnx_tf_prefix_Relu_3",
          "PartitionedCall/Const_3"
        ],
        "attr": {
          "T": { "type": "DT_FLOAT" },
          "Tpaddings": { "type": "DT_INT32" }
        }
      },
      {
        "name": "PartitionedCall/transpose_7",
        "op": "Transpose",
        "input": ["PartitionedCall/Pad_1", "PartitionedCall/transpose_7/perm"],
        "attr": { "T": { "type": "DT_FLOAT" }, "Tperm": { "type": "DT_INT32" } }
      },
      {
        "name": "PartitionedCall/depthwise",
        "op": "DepthwiseConv2dNative",
        "input": ["PartitionedCall/transpose_7", "PartitionedCall/Reshape"],
        "attr": {
          "dilations": { "list": { "i": ["1", "1", "1", "1"] } },
          "padding": { "s": "VkFMSUQ=" },
          "explicit_paddings": { "list": {} },
          "strides": { "list": { "i": ["1", "2", "2", "1"] } },
          "T": { "type": "DT_FLOAT" },
          "data_format": { "s": "TkhXQw==" }
        }
      },
      {
        "name": "PartitionedCall/transpose_8",
        "op": "Transpose",
        "input": [
          "PartitionedCall/depthwise",
          "PartitionedCall/transpose_8/perm"
        ],
        "attr": { "Tperm": { "type": "DT_INT32" }, "T": { "type": "DT_FLOAT" } }
      },
      {
        "name": "PartitionedCall/Mean",
        "op": "Mean",
        "input": [
          "PartitionedCall/transpose_8",
          "ConstantFolding/PartitionedCall/split_2-folded-1"
        ],
        "attr": {
          "Tidx": { "type": "DT_INT32" },
          "keep_dims": { "b": true },
          "T": { "type": "DT_FLOAT" }
        }
      },
      {
        "name": "PartitionedCall/onnx_tf_prefix_Reshape_15",
        "op": "Reshape",
        "input": ["PartitionedCall/Mean", "PartitionedCall/add_3"],
        "attr": {
          "Tshape": { "type": "DT_INT64" },
          "T": { "type": "DT_FLOAT" }
        }
      },
      {
        "name": "PartitionedCall/onnx_tf_prefix_MatMul_16",
        "op": "MatMul",
        "input": ["PartitionedCall/onnx_tf_prefix_Reshape_15", "unknown_5"],
        "device": "/device:CPU:0",
        "attr": {
          "transpose_a": { "b": false },
          "T": { "type": "DT_FLOAT" },
          "transpose_b": { "b": false }
        }
      },
      {
        "name": "PartitionedCall/onnx_tf_prefix_Relu_17",
        "op": "Relu",
        "input": ["PartitionedCall/onnx_tf_prefix_MatMul_16"],
        "attr": { "T": { "type": "DT_FLOAT" } }
      },
      {
        "name": "PartitionedCall/onnx_tf_prefix_MatMul_18",
        "op": "MatMul",
        "input": ["PartitionedCall/onnx_tf_prefix_Relu_17", "unknown_6"],
        "device": "/device:CPU:0",
        "attr": {
          "transpose_b": { "b": false },
          "T": { "type": "DT_FLOAT" },
          "transpose_a": { "b": false }
        }
      },
      {
        "name": "PartitionedCall/onnx_tf_prefix_Add_20",
        "op": "Add",
        "input": [
          "PartitionedCall/onnx_tf_prefix_MatMul_18",
          "PartitionedCall/onnx_tf_prefix_Constant_19"
        ],
        "attr": { "T": { "type": "DT_FLOAT" } }
      },
      {
        "name": "PartitionedCall/clip_by_value/Minimum",
        "op": "Minimum",
        "input": [
          "PartitionedCall/onnx_tf_prefix_Add_20",
          "PartitionedCall/clip_by_value/Minimum/y"
        ],
        "attr": { "T": { "type": "DT_FLOAT" } }
      },
      {
        "name": "PartitionedCall/clip_by_value",
        "op": "Maximum",
        "input": [
          "PartitionedCall/clip_by_value/Minimum",
          "PartitionedCall/clip_by_value/y"
        ],
        "attr": { "T": { "type": "DT_FLOAT" } }
      },
      {
        "name": "PartitionedCall/onnx_tf_prefix_Div_23",
        "op": "Mul",
        "input": [
          "PartitionedCall/clip_by_value",
          "ConstantFolding/PartitionedCall/onnx_tf_prefix_Div_23_recip"
        ],
        "attr": { "T": { "type": "DT_FLOAT" } }
      },
      {
        "name": "PartitionedCall/onnx_tf_prefix_Reshape_27",
        "op": "Reshape",
        "input": [
          "PartitionedCall/onnx_tf_prefix_Div_23",
          "PartitionedCall/add_4"
        ],
        "attr": {
          "Tshape": { "type": "DT_INT64" },
          "T": { "type": "DT_FLOAT" }
        }
      },
      {
        "name": "PartitionedCall/mul",
        "op": "Mul",
        "input": [
          "PartitionedCall/onnx_tf_prefix_Reshape_27",
          "PartitionedCall/ones"
        ],
        "attr": { "T": { "type": "DT_FLOAT" } }
      },
      {
        "name": "PartitionedCall/onnx_tf_prefix_Mul_30",
        "op": "Mul",
        "input": ["PartitionedCall/transpose_8", "PartitionedCall/mul"],
        "attr": { "T": { "type": "DT_FLOAT" } }
      },
      {
        "name": "PartitionedCall/onnx_tf_prefix_Relu_31",
        "op": "Relu",
        "input": ["PartitionedCall/onnx_tf_prefix_Mul_30"],
        "attr": { "T": { "type": "DT_FLOAT" } }
      },
      {
        "name": "PartitionedCall/transpose_10",
        "op": "Transpose",
        "input": [
          "PartitionedCall/onnx_tf_prefix_Relu_31",
          "PartitionedCall/transpose_10/perm"
        ],
        "attr": { "Tperm": { "type": "DT_INT32" }, "T": { "type": "DT_FLOAT" } }
      },
      {
        "name": "PartitionedCall/convolution_2",
        "op": "Conv2D",
        "input": ["PartitionedCall/transpose_10", "PartitionedCall/split_3"],
        "device": "/device:CPU:0",
        "attr": {
          "explicit_paddings": { "list": {} },
          "strides": { "list": { "i": ["1", "1", "1", "1"] } },
          "padding": { "s": "VkFMSUQ=" },
          "dilations": { "list": { "i": ["1", "1", "1", "1"] } },
          "data_format": { "s": "TkhXQw==" },
          "T": { "type": "DT_FLOAT" },
          "use_cudnn_on_gpu": { "b": true }
        }
      },
      {
        "name": "PartitionedCall/convolution_3",
        "op": "Conv2D",
        "input": ["PartitionedCall/convolution_2", "PartitionedCall/split_4"],
        "device": "/device:CPU:0",
        "attr": {
          "strides": { "list": { "i": ["1", "1", "1", "1"] } },
          "data_format": { "s": "TkhXQw==" },
          "use_cudnn_on_gpu": { "b": true },
          "padding": { "s": "VkFMSUQ=" },
          "T": { "type": "DT_FLOAT" },
          "explicit_paddings": { "list": {} },
          "dilations": { "list": { "i": ["1", "1", "1", "1"] } }
        }
      },
      {
        "name": "PartitionedCall/transpose_14",
        "op": "Transpose",
        "input": [
          "PartitionedCall/convolution_3",
          "PartitionedCall/transpose_14/perm"
        ],
        "attr": { "T": { "type": "DT_FLOAT" }, "Tperm": { "type": "DT_INT32" } }
      },
      {
        "name": "PartitionedCall/onnx_tf_prefix_Relu_34",
        "op": "Relu",
        "input": ["PartitionedCall/transpose_14"],
        "attr": { "T": { "type": "DT_FLOAT" } }
      },
      {
        "name": "PartitionedCall/Pad_2",
        "op": "Pad",
        "input": [
          "PartitionedCall/onnx_tf_prefix_Relu_34",
          "PartitionedCall/Const_10"
        ],
        "attr": {
          "T": { "type": "DT_FLOAT" },
          "Tpaddings": { "type": "DT_INT32" }
        }
      },
      {
        "name": "PartitionedCall/transpose_16",
        "op": "Transpose",
        "input": ["PartitionedCall/Pad_2", "PartitionedCall/transpose_16/perm"],
        "attr": { "T": { "type": "DT_FLOAT" }, "Tperm": { "type": "DT_INT32" } }
      },
      {
        "name": "PartitionedCall/depthwise_1",
        "op": "DepthwiseConv2dNative",
        "input": ["PartitionedCall/transpose_16", "PartitionedCall/Reshape_1"],
        "attr": {
          "data_format": { "s": "TkhXQw==" },
          "padding": { "s": "VkFMSUQ=" },
          "explicit_paddings": { "list": {} },
          "dilations": { "list": { "i": ["1", "1", "1", "1"] } },
          "T": { "type": "DT_FLOAT" },
          "strides": { "list": { "i": ["1", "2", "2", "1"] } }
        }
      },
      {
        "name": "PartitionedCall/transpose_17",
        "op": "Transpose",
        "input": [
          "PartitionedCall/depthwise_1",
          "PartitionedCall/transpose_17/perm"
        ],
        "attr": { "T": { "type": "DT_FLOAT" }, "Tperm": { "type": "DT_INT32" } }
      },
      {
        "name": "PartitionedCall/onnx_tf_prefix_Relu_36",
        "op": "Relu",
        "input": ["PartitionedCall/transpose_17"],
        "attr": { "T": { "type": "DT_FLOAT" } }
      },
      {
        "name": "PartitionedCall/transpose_19",
        "op": "Transpose",
        "input": [
          "PartitionedCall/onnx_tf_prefix_Relu_36",
          "PartitionedCall/transpose_19/perm"
        ],
        "attr": { "T": { "type": "DT_FLOAT" }, "Tperm": { "type": "DT_INT32" } }
      },
      {
        "name": "PartitionedCall/convolution_4",
        "op": "Conv2D",
        "input": ["PartitionedCall/transpose_19", "PartitionedCall/split_5"],
        "device": "/device:CPU:0",
        "attr": {
          "padding": { "s": "VkFMSUQ=" },
          "strides": { "list": { "i": ["1", "1", "1", "1"] } },
          "data_format": { "s": "TkhXQw==" },
          "T": { "type": "DT_FLOAT" },
          "explicit_paddings": { "list": {} },
          "dilations": { "list": { "i": ["1", "1", "1", "1"] } },
          "use_cudnn_on_gpu": { "b": true }
        }
      },
      {
        "name": "PartitionedCall/transpose_20",
        "op": "Transpose",
        "input": [
          "PartitionedCall/convolution_4",
          "PartitionedCall/transpose_20/perm"
        ],
        "attr": { "T": { "type": "DT_FLOAT" }, "Tperm": { "type": "DT_INT32" } }
      },
      {
        "name": "PartitionedCall/convolution_5",
        "op": "Conv2D",
        "input": ["PartitionedCall/convolution_4", "PartitionedCall/split_6"],
        "device": "/device:CPU:0",
        "attr": {
          "padding": { "s": "VkFMSUQ=" },
          "use_cudnn_on_gpu": { "b": true },
          "T": { "type": "DT_FLOAT" },
          "strides": { "list": { "i": ["1", "1", "1", "1"] } },
          "data_format": { "s": "TkhXQw==" },
          "dilations": { "list": { "i": ["1", "1", "1", "1"] } },
          "explicit_paddings": { "list": {} }
        }
      },
      {
        "name": "PartitionedCall/transpose_23",
        "op": "Transpose",
        "input": [
          "PartitionedCall/convolution_5",
          "PartitionedCall/transpose_23/perm"
        ],
        "attr": { "T": { "type": "DT_FLOAT" }, "Tperm": { "type": "DT_INT32" } }
      },
      {
        "name": "PartitionedCall/onnx_tf_prefix_Relu_39",
        "op": "Relu",
        "input": ["PartitionedCall/transpose_23"],
        "attr": { "T": { "type": "DT_FLOAT" } }
      },
      {
        "name": "PartitionedCall/Pad_3",
        "op": "Pad",
        "input": [
          "PartitionedCall/onnx_tf_prefix_Relu_39",
          "PartitionedCall/Const_13"
        ],
        "attr": {
          "T": { "type": "DT_FLOAT" },
          "Tpaddings": { "type": "DT_INT32" }
        }
      },
      {
        "name": "PartitionedCall/transpose_25",
        "op": "Transpose",
        "input": ["PartitionedCall/Pad_3", "PartitionedCall/transpose_25/perm"],
        "attr": { "T": { "type": "DT_FLOAT" }, "Tperm": { "type": "DT_INT32" } }
      },
      {
        "name": "PartitionedCall/depthwise_2",
        "op": "DepthwiseConv2dNative",
        "input": ["PartitionedCall/transpose_25", "PartitionedCall/Reshape_2"],
        "attr": {
          "strides": { "list": { "i": ["1", "1", "1", "1"] } },
          "T": { "type": "DT_FLOAT" },
          "dilations": { "list": { "i": ["1", "1", "1", "1"] } },
          "padding": { "s": "VkFMSUQ=" },
          "data_format": { "s": "TkhXQw==" },
          "explicit_paddings": { "list": {} }
        }
      },
      {
        "name": "PartitionedCall/transpose_26",
        "op": "Transpose",
        "input": [
          "PartitionedCall/depthwise_2",
          "PartitionedCall/transpose_26/perm"
        ],
        "attr": { "Tperm": { "type": "DT_INT32" }, "T": { "type": "DT_FLOAT" } }
      },
      {
        "name": "PartitionedCall/onnx_tf_prefix_Relu_41",
        "op": "Relu",
        "input": ["PartitionedCall/transpose_26"],
        "attr": { "T": { "type": "DT_FLOAT" } }
      },
      {
        "name": "PartitionedCall/transpose_28",
        "op": "Transpose",
        "input": [
          "PartitionedCall/onnx_tf_prefix_Relu_41",
          "PartitionedCall/transpose_28/perm"
        ],
        "attr": { "T": { "type": "DT_FLOAT" }, "Tperm": { "type": "DT_INT32" } }
      },
      {
        "name": "PartitionedCall/convolution_6",
        "op": "Conv2D",
        "input": ["PartitionedCall/transpose_28", "PartitionedCall/split_7"],
        "device": "/device:CPU:0",
        "attr": {
          "T": { "type": "DT_FLOAT" },
          "padding": { "s": "VkFMSUQ=" },
          "data_format": { "s": "TkhXQw==" },
          "strides": { "list": { "i": ["1", "1", "1", "1"] } },
          "explicit_paddings": { "list": {} },
          "use_cudnn_on_gpu": { "b": true },
          "dilations": { "list": { "i": ["1", "1", "1", "1"] } }
        }
      },
      {
        "name": "PartitionedCall/transpose_29",
        "op": "Transpose",
        "input": [
          "PartitionedCall/convolution_6",
          "PartitionedCall/transpose_29/perm"
        ],
        "attr": { "Tperm": { "type": "DT_INT32" }, "T": { "type": "DT_FLOAT" } }
      },
      {
        "name": "PartitionedCall/onnx_tf_prefix_Add_43",
        "op": "Add",
        "input": [
          "PartitionedCall/transpose_20",
          "PartitionedCall/transpose_29"
        ],
        "attr": { "T": { "type": "DT_FLOAT" } }
      },
      {
        "name": "PartitionedCall/transpose_31",
        "op": "Transpose",
        "input": [
          "PartitionedCall/onnx_tf_prefix_Add_43",
          "PartitionedCall/transpose_31/perm"
        ],
        "attr": { "T": { "type": "DT_FLOAT" }, "Tperm": { "type": "DT_INT32" } }
      },
      {
        "name": "PartitionedCall/convolution_7",
        "op": "Conv2D",
        "input": ["PartitionedCall/transpose_31", "PartitionedCall/split_8"],
        "device": "/device:CPU:0",
        "attr": {
          "explicit_paddings": { "list": {} },
          "dilations": { "list": { "i": ["1", "1", "1", "1"] } },
          "use_cudnn_on_gpu": { "b": true },
          "T": { "type": "DT_FLOAT" },
          "data_format": { "s": "TkhXQw==" },
          "strides": { "list": { "i": ["1", "1", "1", "1"] } },
          "padding": { "s": "VkFMSUQ=" }
        }
      },
      {
        "name": "PartitionedCall/transpose_32",
        "op": "Transpose",
        "input": [
          "PartitionedCall/convolution_7",
          "PartitionedCall/transpose_32/perm"
        ],
        "attr": { "Tperm": { "type": "DT_INT32" }, "T": { "type": "DT_FLOAT" } }
      },
      {
        "name": "PartitionedCall/onnx_tf_prefix_Mul_48",
        "op": "Mul",
        "input": [
          "ConstantFolding/PartitionedCall/onnx_tf_prefix_Div_50_recip",
          "PartitionedCall/transpose_32"
        ],
        "attr": {
          "_grappler_ArithmeticOptimizer_MinimizeBroadcasts": { "b": true },
          "T": { "type": "DT_FLOAT" }
        }
      },
      {
        "name": "PartitionedCall/onnx_tf_prefix_Add_46",
        "op": "Add",
        "input": [
          "PartitionedCall/transpose_32",
          "PartitionedCall/onnx_tf_prefix_Constant_45"
        ],
        "attr": { "T": { "type": "DT_FLOAT" } }
      },
      {
        "name": "PartitionedCall/clip_by_value_1/Minimum",
        "op": "Minimum",
        "input": [
          "PartitionedCall/onnx_tf_prefix_Add_46",
          "PartitionedCall/clip_by_value_1/Minimum/y"
        ],
        "attr": { "T": { "type": "DT_FLOAT" } }
      },
      {
        "name": "PartitionedCall/clip_by_value_1",
        "op": "Maximum",
        "input": [
          "PartitionedCall/clip_by_value_1/Minimum",
          "PartitionedCall/clip_by_value_1/y"
        ],
        "attr": { "T": { "type": "DT_FLOAT" } }
      },
      {
        "name": "PartitionedCall/onnx_tf_prefix_Div_50",
        "op": "Mul",
        "input": [
          "PartitionedCall/onnx_tf_prefix_Mul_48",
          "PartitionedCall/clip_by_value_1"
        ],
        "attr": {
          "T": { "type": "DT_FLOAT" },
          "_grappler_ArithmeticOptimizer_MinimizeBroadcasts": { "b": true }
        }
      },
      {
        "name": "PartitionedCall/Pad_4",
        "op": "Pad",
        "input": [
          "PartitionedCall/onnx_tf_prefix_Div_50",
          "PartitionedCall/Const_18"
        ],
        "attr": {
          "Tpaddings": { "type": "DT_INT32" },
          "T": { "type": "DT_FLOAT" }
        }
      },
      {
        "name": "PartitionedCall/transpose_34",
        "op": "Transpose",
        "input": ["PartitionedCall/Pad_4", "PartitionedCall/transpose_34/perm"],
        "attr": { "Tperm": { "type": "DT_INT32" }, "T": { "type": "DT_FLOAT" } }
      },
      {
        "name": "PartitionedCall/depthwise_3",
        "op": "DepthwiseConv2dNative",
        "input": ["PartitionedCall/transpose_34", "PartitionedCall/Reshape_3"],
        "attr": {
          "explicit_paddings": { "list": {} },
          "T": { "type": "DT_FLOAT" },
          "data_format": { "s": "TkhXQw==" },
          "padding": { "s": "VkFMSUQ=" },
          "dilations": { "list": { "i": ["1", "1", "1", "1"] } },
          "strides": { "list": { "i": ["1", "2", "2", "1"] } }
        }
      },
      {
        "name": "PartitionedCall/transpose_35",
        "op": "Transpose",
        "input": [
          "PartitionedCall/depthwise_3",
          "PartitionedCall/transpose_35/perm"
        ],
        "attr": { "T": { "type": "DT_FLOAT" }, "Tperm": { "type": "DT_INT32" } }
      },
      {
        "name": "PartitionedCall/Mean_1",
        "op": "Mean",
        "input": [
          "PartitionedCall/transpose_35",
          "ConstantFolding/PartitionedCall/split_9-folded-1"
        ],
        "attr": {
          "Tidx": { "type": "DT_INT32" },
          "keep_dims": { "b": true },
          "T": { "type": "DT_FLOAT" }
        }
      },
      {
        "name": "PartitionedCall/onnx_tf_prefix_Reshape_62",
        "op": "Reshape",
        "input": ["PartitionedCall/Mean_1", "PartitionedCall/add_14"],
        "attr": {
          "Tshape": { "type": "DT_INT64" },
          "T": { "type": "DT_FLOAT" }
        }
      },
      {
        "name": "PartitionedCall/onnx_tf_prefix_MatMul_63",
        "op": "MatMul",
        "input": ["PartitionedCall/onnx_tf_prefix_Reshape_62", "unknown_27"],
        "device": "/device:CPU:0",
        "attr": {
          "transpose_a": { "b": false },
          "transpose_b": { "b": false },
          "T": { "type": "DT_FLOAT" }
        }
      },
      {
        "name": "PartitionedCall/onnx_tf_prefix_Relu_64",
        "op": "Relu",
        "input": ["PartitionedCall/onnx_tf_prefix_MatMul_63"],
        "attr": { "T": { "type": "DT_FLOAT" } }
      },
      {
        "name": "PartitionedCall/onnx_tf_prefix_MatMul_65",
        "op": "MatMul",
        "input": ["PartitionedCall/onnx_tf_prefix_Relu_64", "unknown_28"],
        "device": "/device:CPU:0",
        "attr": {
          "transpose_b": { "b": false },
          "T": { "type": "DT_FLOAT" },
          "transpose_a": { "b": false }
        }
      },
      {
        "name": "PartitionedCall/onnx_tf_prefix_Add_67",
        "op": "Add",
        "input": [
          "PartitionedCall/onnx_tf_prefix_MatMul_65",
          "PartitionedCall/onnx_tf_prefix_Constant_66"
        ],
        "attr": { "T": { "type": "DT_FLOAT" } }
      },
      {
        "name": "PartitionedCall/clip_by_value_2/Minimum",
        "op": "Minimum",
        "input": [
          "PartitionedCall/onnx_tf_prefix_Add_67",
          "PartitionedCall/clip_by_value_2/Minimum/y"
        ],
        "attr": { "T": { "type": "DT_FLOAT" } }
      },
      {
        "name": "PartitionedCall/clip_by_value_2",
        "op": "Maximum",
        "input": [
          "PartitionedCall/clip_by_value_2/Minimum",
          "PartitionedCall/clip_by_value_2/y"
        ],
        "attr": { "T": { "type": "DT_FLOAT" } }
      },
      {
        "name": "PartitionedCall/onnx_tf_prefix_Div_70",
        "op": "Mul",
        "input": [
          "PartitionedCall/clip_by_value_2",
          "ConstantFolding/PartitionedCall/onnx_tf_prefix_Div_70_recip"
        ],
        "attr": { "T": { "type": "DT_FLOAT" } }
      },
      {
        "name": "PartitionedCall/onnx_tf_prefix_Reshape_74",
        "op": "Reshape",
        "input": [
          "PartitionedCall/onnx_tf_prefix_Div_70",
          "PartitionedCall/add_15"
        ],
        "attr": {
          "Tshape": { "type": "DT_INT64" },
          "T": { "type": "DT_FLOAT" }
        }
      },
      {
        "name": "PartitionedCall/mul_1",
        "op": "Mul",
        "input": [
          "PartitionedCall/onnx_tf_prefix_Reshape_74",
          "PartitionedCall/ones_1"
        ],
        "attr": { "T": { "type": "DT_FLOAT" } }
      },
      {
        "name": "PartitionedCall/onnx_tf_prefix_Mul_77",
        "op": "Mul",
        "input": ["PartitionedCall/transpose_35", "PartitionedCall/mul_1"],
        "attr": { "T": { "type": "DT_FLOAT" } }
      },
      {
        "name": "PartitionedCall/onnx_tf_prefix_Mul_81",
        "op": "Mul",
        "input": [
          "ConstantFolding/PartitionedCall/onnx_tf_prefix_Div_83_recip",
          "PartitionedCall/onnx_tf_prefix_Mul_77"
        ],
        "attr": {
          "T": { "type": "DT_FLOAT" },
          "_grappler_ArithmeticOptimizer_MinimizeBroadcasts": { "b": true }
        }
      },
      {
        "name": "PartitionedCall/onnx_tf_prefix_Add_79",
        "op": "Add",
        "input": [
          "PartitionedCall/onnx_tf_prefix_Mul_77",
          "PartitionedCall/onnx_tf_prefix_Constant_78"
        ],
        "attr": { "T": { "type": "DT_FLOAT" } }
      },
      {
        "name": "PartitionedCall/clip_by_value_3/Minimum",
        "op": "Minimum",
        "input": [
          "PartitionedCall/onnx_tf_prefix_Add_79",
          "PartitionedCall/clip_by_value_3/Minimum/y"
        ],
        "attr": { "T": { "type": "DT_FLOAT" } }
      },
      {
        "name": "PartitionedCall/clip_by_value_3",
        "op": "Maximum",
        "input": [
          "PartitionedCall/clip_by_value_3/Minimum",
          "PartitionedCall/clip_by_value_3/y"
        ],
        "attr": { "T": { "type": "DT_FLOAT" } }
      },
      {
        "name": "PartitionedCall/onnx_tf_prefix_Div_83",
        "op": "Mul",
        "input": [
          "PartitionedCall/onnx_tf_prefix_Mul_81",
          "PartitionedCall/clip_by_value_3"
        ],
        "attr": {
          "_grappler_ArithmeticOptimizer_MinimizeBroadcasts": { "b": true },
          "T": { "type": "DT_FLOAT" }
        }
      },
      {
        "name": "PartitionedCall/transpose_37",
        "op": "Transpose",
        "input": [
          "PartitionedCall/onnx_tf_prefix_Div_83",
          "PartitionedCall/transpose_37/perm"
        ],
        "attr": { "T": { "type": "DT_FLOAT" }, "Tperm": { "type": "DT_INT32" } }
      },
      {
        "name": "PartitionedCall/convolution_8",
        "op": "Conv2D",
        "input": ["PartitionedCall/transpose_37", "PartitionedCall/split_10"],
        "device": "/device:CPU:0",
        "attr": {
          "use_cudnn_on_gpu": { "b": true },
          "T": { "type": "DT_FLOAT" },
          "dilations": { "list": { "i": ["1", "1", "1", "1"] } },
          "data_format": { "s": "TkhXQw==" },
          "padding": { "s": "VkFMSUQ=" },
          "strides": { "list": { "i": ["1", "1", "1", "1"] } },
          "explicit_paddings": { "list": {} }
        }
      },
      {
        "name": "PartitionedCall/transpose_38",
        "op": "Transpose",
        "input": [
          "PartitionedCall/convolution_8",
          "PartitionedCall/transpose_38/perm"
        ],
        "attr": { "T": { "type": "DT_FLOAT" }, "Tperm": { "type": "DT_INT32" } }
      },
      {
        "name": "PartitionedCall/convolution_9",
        "op": "Conv2D",
        "input": ["PartitionedCall/convolution_8", "PartitionedCall/split_11"],
        "device": "/device:CPU:0",
        "attr": {
          "dilations": { "list": { "i": ["1", "1", "1", "1"] } },
          "data_format": { "s": "TkhXQw==" },
          "strides": { "list": { "i": ["1", "1", "1", "1"] } },
          "explicit_paddings": { "list": {} },
          "padding": { "s": "VkFMSUQ=" },
          "use_cudnn_on_gpu": { "b": true },
          "T": { "type": "DT_FLOAT" }
        }
      },
      {
…
          "PartitionedCall/clip_by_value_23/y"
        ],
        "attr": { "T": { "type": "DT_FLOAT" } }
      },
      {
        "name": "PartitionedCall/onnx_tf_prefix_Div_361",
        "op": "Mul",
        "input": [
          "PartitionedCall/clip_by_value_23",
          "ConstantFolding/PartitionedCall/onnx_tf_prefix_Div_361_recip"
        ],
        "attr": { "T": { "type": "DT_FLOAT" } }
      },
      {
        "name": "PartitionedCall/onnx_tf_prefix_Reshape_365",
        "op": "Reshape",
        "input": [
          "PartitionedCall/onnx_tf_prefix_Div_361",
          "PartitionedCall/add_50"
        ],
        "attr": {
          "T": { "type": "DT_FLOAT" },
          "Tshape": { "type": "DT_INT64" }
        }
      },
      {
        "name": "PartitionedCall/mul_8",
        "op": "Mul",
        "input": [
          "PartitionedCall/onnx_tf_prefix_Reshape_365",
          "PartitionedCall/ones_8"
        ],
        "attr": { "T": { "type": "DT_FLOAT" } }
      },
      {
        "name": "PartitionedCall/onnx_tf_prefix_Mul_368",
        "op": "Mul",
        "input": ["PartitionedCall/transpose_98", "PartitionedCall/mul_8"],
        "attr": { "T": { "type": "DT_FLOAT" } }
      },
      {
        "name": "PartitionedCall/onnx_tf_prefix_Mul_372",
        "op": "Mul",
        "input": [
          "ConstantFolding/PartitionedCall/onnx_tf_prefix_Div_374_recip",
          "PartitionedCall/onnx_tf_prefix_Mul_368"
        ],
        "attr": {
          "_grappler_ArithmeticOptimizer_MinimizeBroadcasts": { "b": true },
          "T": { "type": "DT_FLOAT" }
        }
      },
      {
        "name": "PartitionedCall/onnx_tf_prefix_Add_370",
        "op": "Add",
        "input": [
          "PartitionedCall/onnx_tf_prefix_Mul_368",
          "PartitionedCall/onnx_tf_prefix_Constant_369"
        ],
        "attr": { "T": { "type": "DT_FLOAT" } }
      },
      {
        "name": "PartitionedCall/clip_by_value_24/Minimum",
        "op": "Minimum",
        "input": [
          "PartitionedCall/onnx_tf_prefix_Add_370",
          "PartitionedCall/clip_by_value_24/Minimum/y"
        ],
        "attr": { "T": { "type": "DT_FLOAT" } }
      },
      {
        "name": "PartitionedCall/clip_by_value_24",
        "op": "Maximum",
        "input": [
          "PartitionedCall/clip_by_value_24/Minimum",
          "PartitionedCall/clip_by_value_24/y"
        ],
        "attr": { "T": { "type": "DT_FLOAT" } }
      },
      {
        "name": "PartitionedCall/onnx_tf_prefix_Div_374",
        "op": "Mul",
        "input": [
          "PartitionedCall/onnx_tf_prefix_Mul_372",
          "PartitionedCall/clip_by_value_24"
        ],
        "attr": {
          "T": { "type": "DT_FLOAT" },
          "_grappler_ArithmeticOptimizer_MinimizeBroadcasts": { "b": true }
        }
      },
      {
        "name": "PartitionedCall/transpose_100",
        "op": "Transpose",
        "input": [
          "PartitionedCall/onnx_tf_prefix_Div_374",
          "PartitionedCall/transpose_100/perm"
        ],
        "attr": { "Tperm": { "type": "DT_INT32" }, "T": { "type": "DT_FLOAT" } }
      },
      {
        "name": "PartitionedCall/convolution_22",
        "op": "Conv2D",
        "input": ["PartitionedCall/transpose_100", "PartitionedCall/split_31"],
        "device": "/device:CPU:0",
        "attr": {
          "T": { "type": "DT_FLOAT" },
          "use_cudnn_on_gpu": { "b": true },
          "explicit_paddings": { "list": {} },
          "data_format": { "s": "TkhXQw==" },
          "padding": { "s": "VkFMSUQ=" },
          "dilations": { "list": { "i": ["1", "1", "1", "1"] } },
          "strides": { "list": { "i": ["1", "1", "1", "1"] } }
        }
      },
      {
        "name": "PartitionedCall/transpose_101",
        "op": "Transpose",
        "input": [
          "PartitionedCall/convolution_22",
          "PartitionedCall/transpose_101/perm"
        ],
        "attr": { "Tperm": { "type": "DT_INT32" }, "T": { "type": "DT_FLOAT" } }
      },
      {
        "name": "PartitionedCall/onnx_tf_prefix_Add_376",
        "op": "Add",
        "input": [
          "PartitionedCall/onnx_tf_prefix_Add_334",
          "PartitionedCall/transpose_101"
        ],
        "attr": { "T": { "type": "DT_FLOAT" } }
      },
      {
        "name": "PartitionedCall/transpose_103",
        "op": "Transpose",
        "input": [
          "PartitionedCall/onnx_tf_prefix_Add_376",
          "PartitionedCall/transpose_103/perm"
        ],
        "attr": { "Tperm": { "type": "DT_INT32" }, "T": { "type": "DT_FLOAT" } }
      },
      {
        "name": "PartitionedCall/convolution_23",
        "op": "Conv2D",
        "input": ["PartitionedCall/transpose_103", "PartitionedCall/split_32"],
        "device": "/device:CPU:0",
        "attr": {
          "use_cudnn_on_gpu": { "b": true },
          "explicit_paddings": { "list": {} },
          "data_format": { "s": "TkhXQw==" },
          "T": { "type": "DT_FLOAT" },
          "padding": { "s": "VkFMSUQ=" },
          "dilations": { "list": { "i": ["1", "1", "1", "1"] } },
          "strides": { "list": { "i": ["1", "1", "1", "1"] } }
        }
      },
      {
        "name": "PartitionedCall/transpose_104",
        "op": "Transpose",
        "input": [
          "PartitionedCall/convolution_23",
          "PartitionedCall/transpose_104/perm"
        ],
        "attr": { "T": { "type": "DT_FLOAT" }, "Tperm": { "type": "DT_INT32" } }
      },
      {
        "name": "PartitionedCall/onnx_tf_prefix_Relu_378",
        "op": "Relu",
        "input": ["PartitionedCall/transpose_104"],
        "attr": { "T": { "type": "DT_FLOAT" } }
      },
      {
        "name": "PartitionedCall/Mean_9",
        "op": "Mean",
        "input": [
          "PartitionedCall/onnx_tf_prefix_Relu_378",
          "ConstantFolding/PartitionedCall/split_33-folded-1"
        ],
        "attr": {
          "Tidx": { "type": "DT_INT32" },
          "T": { "type": "DT_FLOAT" },
          "keep_dims": { "b": true }
        }
      },
      {
        "name": "PartitionedCall/transpose_106",
        "op": "Transpose",
        "input": [
          "PartitionedCall/Mean_9",
          "PartitionedCall/transpose_106/perm"
        ],
        "attr": { "T": { "type": "DT_FLOAT" }, "Tperm": { "type": "DT_INT32" } }
      },
      {
        "name": "PartitionedCall/convolution_24",
        "op": "Conv2D",
        "input": ["PartitionedCall/transpose_106", "PartitionedCall/split_34"],
        "device": "/device:CPU:0",
        "attr": {
          "padding": { "s": "VkFMSUQ=" },
          "T": { "type": "DT_FLOAT" },
          "strides": { "list": { "i": ["1", "1", "1", "1"] } },
          "use_cudnn_on_gpu": { "b": true },
          "explicit_paddings": { "list": {} },
          "dilations": { "list": { "i": ["1", "1", "1", "1"] } },
          "data_format": { "s": "TkhXQw==" }
        }
      },
      {
        "name": "PartitionedCall/transpose_107",
        "op": "Transpose",
        "input": [
          "PartitionedCall/convolution_24",
          "PartitionedCall/transpose_107/perm"
        ],
        "attr": { "T": { "type": "DT_FLOAT" }, "Tperm": { "type": "DT_INT32" } }
      },
      {
        "name": "PartitionedCall/onnx_tf_prefix_Squeeze_381",
        "op": "Squeeze",
        "input": ["PartitionedCall/transpose_107"],
        "attr": {
          "squeeze_dims": { "list": { "i": ["2"] } },
          "T": { "type": "DT_FLOAT" }
        }
      },
      {
        "name": "PartitionedCall/onnx_tf_prefix_Squeeze_382",
        "op": "Squeeze",
        "input": ["PartitionedCall/onnx_tf_prefix_Squeeze_381"],
        "attr": {
          "squeeze_dims": { "list": { "i": ["2"] } },
          "T": { "type": "DT_FLOAT" }
        }
      },
      {
        "name": "Identity",
        "op": "Identity",
        "input": ["PartitionedCall/onnx_tf_prefix_Squeeze_382"],
        "attr": { "T": { "type": "DT_FLOAT" } }
      }
    ],
    "library": {},
    "versions": { "producer": 561 }
  },
  "weightsManifest": [
    {
      "paths": ["group1-shard1of2.bin", "group1-shard2of2.bin"],
      "weights": [
        {
          "name": "ConstantFolding/PartitionedCall/onnx_tf_prefix_Div_374_recip",
          "shape": [],
          "dtype": "float32"
        },
        {
          "name": "ConstantFolding/PartitionedCall/onnx_tf_prefix_Div_341_recip",
          "shape": [],
          "dtype": "float32"
        },
        {
          "name": "PartitionedCall/transpose_83/perm",
          "shape": [4],
          "dtype": "int32"
        },
        {
          "name": "ConstantFolding/PartitionedCall/onnx_tf_prefix_Div_332_recip",
          "shape": [],
          "dtype": "float32"
        },
        {
          "name": "ConstantFolding/PartitionedCall/onnx_tf_prefix_Div_299_recip",
          "shape": [],
          "dtype": "float32"
        },
        {
          "name": "ConstantFolding/PartitionedCall/onnx_tf_prefix_Div_291_recip",
          "shape": [],
          "dtype": "float32"
        },
        {
          "name": "ConstantFolding/PartitionedCall/onnx_tf_prefix_Div_258_recip",
          "shape": [],
          "dtype": "float32"
        },
        {
          "name": "PartitionedCall/transpose_65/perm",
          "shape": [4],
          "dtype": "int32"
        },
        {
          "name": "ConstantFolding/PartitionedCall/onnx_tf_prefix_Div_249_recip",
          "shape": [],
          "dtype": "float32"
        },
        {
          "name": "ConstantFolding/PartitionedCall/onnx_tf_prefix_Div_216_recip",
          "shape": [],
          "dtype": "float32"
        },
        {
          "name": "ConstantFolding/PartitionedCall/onnx_tf_prefix_Div_208_recip",
          "shape": [],
          "dtype": "float32"
        },
        {
          "name": "ConstantFolding/PartitionedCall/onnx_tf_prefix_Div_175_recip",
          "shape": [],
          "dtype": "float32"
        },
        {
          "name": "ConstantFolding/PartitionedCall/onnx_tf_prefix_Div_166_recip",
          "shape": [],
          "dtype": "float32"
        },
        {
          "name": "ConstantFolding/PartitionedCall/onnx_tf_prefix_Div_133_recip",
          "shape": [],
          "dtype": "float32"
        },
        {
          "name": "PartitionedCall/transpose_38/perm",
          "shape": [4],
          "dtype": "int32"
        },
        {
          "name": "ConstantFolding/PartitionedCall/onnx_tf_prefix_Div_124_recip",
          "shape": [],
          "dtype": "float32"
        },
        {
          "name": "ConstantFolding/PartitionedCall/onnx_tf_prefix_Div_91_recip",
          "shape": [],
          "dtype": "float32"
        },
        {
          "name": "ConstantFolding/PartitionedCall/onnx_tf_prefix_Div_83_recip",
          "shape": [],
          "dtype": "float32"
        },
        {
          "name": "ConstantFolding/PartitionedCall/onnx_tf_prefix_Div_50_recip",
          "shape": [],
          "dtype": "float32"
        },
        {
          "name": "PartitionedCall/transpose_20/perm",
          "shape": [4],
          "dtype": "int32"
        },
        { "name": "PartitionedCall/Const", "shape": [4, 2], "dtype": "int32" },
        {
          "name": "PartitionedCall/transpose_1/perm",
          "shape": [4],
          "dtype": "int32"
        },
        {
          "name": "PartitionedCall/split",
          "shape": [3, 3, 1, 16],
          "dtype": "float32"
        },
        {
          "name": "PartitionedCall/transpose_2/perm",
          "shape": [4],
          "dtype": "int32"
        },
        {
          "name": "PartitionedCall/transpose_4/perm",
          "shape": [4],
          "dtype": "int32"
        },
        {
          "name": "PartitionedCall/split_1",
          "shape": [1, 1, 16, 16],
          "dtype": "float32"
        },
        {
          "name": "PartitionedCall/transpose_5/perm",
          "shape": [4],
          "dtype": "int32"
        },
        {
          "name": "PartitionedCall/Const_3",
          "shape": [4, 2],
          "dtype": "int32"
        },
        {
          "name": "PartitionedCall/transpose_7/perm",
          "shape": [4],
          "dtype": "int32"
        },
        {
          "name": "PartitionedCall/Reshape",
          "shape": [3, 3, 16, 1],
          "dtype": "float32"
        },
        {
          "name": "PartitionedCall/transpose_8/perm",
          "shape": [4],
          "dtype": "int32"
        },
        {
          "name": "ConstantFolding/PartitionedCall/split_2-folded-1",
          "shape": [2],
          "dtype": "int32"
        },
        {
          "name": "PartitionedCall/onnx_tf_prefix_Concat_14",
          "shape": [2],
          "dtype": "int32"
        },
        { "name": "PartitionedCall/Where", "shape": [0, 1], "dtype": "int32" },
        { "name": "PartitionedCall/Cast", "shape": [1], "dtype": "int32" },
        { "name": "PartitionedCall/GatherV2", "shape": [0], "dtype": "int32" },
        { "name": "PartitionedCall/zeros", "shape": [], "dtype": "int32" },
        { "name": "unknown_5", "shape": [16, 4], "dtype": "float32" },
        { "name": "unknown_6", "shape": [4, 16], "dtype": "float32" },
        {
          "name": "PartitionedCall/onnx_tf_prefix_Constant_19",
          "shape": [],
          "dtype": "float32"
        },
        {
          "name": "PartitionedCall/clip_by_value/Minimum/y",
          "shape": [],
          "dtype": "float32"
        },
        {
          "name": "PartitionedCall/clip_by_value/y",
          "shape": [],
          "dtype": "float32"
        },
        {
          "name": "ConstantFolding/PartitionedCall/onnx_tf_prefix_Div_23_recip",
          "shape": [],
          "dtype": "float32"
        },
        {
          "name": "PartitionedCall/onnx_tf_prefix_Concat_26",
          "shape": [4],
          "dtype": "int32"
        },
        {
          "name": "PartitionedCall/Where_1",
          "shape": [0, 1],
          "dtype": "int32"
        },
        { "name": "PartitionedCall/Cast_1", "shape": [1], "dtype": "int32" },
        {
          "name": "PartitionedCall/GatherV2_1",
          "shape": [0],
          "dtype": "int32"
        },
        { "name": "PartitionedCall/zeros_1", "shape": [], "dtype": "int32" },
        {
          "name": "PartitionedCall/ones",
          "shape": [1, 16, 32, 156],
          "dtype": "float32"
        },
        {
          "name": "PartitionedCall/transpose_10/perm",
          "shape": [4],
          "dtype": "int32"
        },
        {
          "name": "PartitionedCall/split_3",
          "shape": [1, 1, 16, 16],
          "dtype": "float32"
        },
        {
          "name": "PartitionedCall/split_4",
          "shape": [1, 1, 16, 72],
          "dtype": "float32"
        },
        {
          "name": "PartitionedCall/transpose_14/perm",
          "shape": [4],
          "dtype": "int32"
        },
        {
          "name": "PartitionedCall/Const_10",
          "shape": [4, 2],
          "dtype": "int32"
        },
        {
          "name": "PartitionedCall/transpose_16/perm",
          "shape": [4],
          "dtype": "int32"
        },
        {
          "name": "PartitionedCall/Reshape_1",
          "shape": [3, 3, 72, 1],
          "dtype": "float32"
        },
        {
          "name": "PartitionedCall/transpose_17/perm",
          "shape": [4],
          "dtype": "int32"
        },
        {
          "name": "PartitionedCall/transpose_19/perm",
          "shape": [4],
          "dtype": "int32"
        },
        {
          "name": "PartitionedCall/split_5",
          "shape": [1, 1, 72, 24],
          "dtype": "float32"
        },
        {
          "name": "PartitionedCall/split_6",
          "shape": [1, 1, 24, 88],
          "dtype": "float32"
        },
        {
          "name": "PartitionedCall/transpose_23/perm",
          "shape": [4],
          "dtype": "int32"
        },
        {
          "name": "PartitionedCall/Const_13",
          "shape": [4, 2],
          "dtype": "int32"
        },
        {
          "name": "PartitionedCall/transpose_25/perm",
          "shape": [4],
          "dtype": "int32"
        },
        {
          "name": "PartitionedCall/Reshape_2",
          "shape": [3, 3, 88, 1],
          "dtype": "float32"
        },
        {
          "name": "PartitionedCall/transpose_26/perm",
          "shape": [4],
          "dtype": "int32"
        },
        {
          "name": "PartitionedCall/transpose_28/perm",
          "shape": [4],
          "dtype": "int32"
        },
        {
          "name": "PartitionedCall/split_7",
          "shape": [1, 1, 88, 24],
          "dtype": "float32"
        },
        {
          "name": "PartitionedCall/transpose_29/perm",
          "shape": [4],
          "dtype": "int32"
        },
        {
          "name": "PartitionedCall/transpose_31/perm",
          "shape": [4],
          "dtype": "int32"
        },
        {
          "name": "PartitionedCall/split_8",
          "shape": [1, 1, 24, 96],
          "dtype": "float32"
        },
        {
          "name": "PartitionedCall/transpose_32/perm",
          "shape": [4],
          "dtype": "int32"
        },
        {
          "name": "PartitionedCall/onnx_tf_prefix_Constant_45",
          "shape": [],
          "dtype": "float32"
        },
        {
          "name": "PartitionedCall/clip_by_value_1/Minimum/y",
          "shape": [],
          "dtype": "float32"
        },
        {
          "name": "PartitionedCall/clip_by_value_1/y",
          "shape": [],
          "dtype": "float32"
        },
        {
          "name": "PartitionedCall/Const_18",
          "shape": [4, 2],
          "dtype": "int32"
        },
        {
          "name": "PartitionedCall/transpose_34/perm",
          "shape": [4],
          "dtype": "int32"
        },
        {
          "name": "PartitionedCall/Reshape_3",
          "shape": [5, 5, 96, 1],
          "dtype": "float32"
        },
        {
          "name": "PartitionedCall/transpose_35/perm",
          "shape": [4],
          "dtype": "int32"
        },
        {
          "name": "ConstantFolding/PartitionedCall/split_9-folded-1",
          "shape": [2],
          "dtype": "int32"
        },
        {
          "name": "PartitionedCall/onnx_tf_prefix_Concat_61",
          "shape": [2],
          "dtype": "int32"
        },
        {
          "name": "PartitionedCall/Where_2",
          "shape": [0, 1],
          "dtype": "int32"
        },
        { "name": "PartitionedCall/Cast_2", "shape": [1], "dtype": "int32" },
        {
          "name": "PartitionedCall/GatherV2_2",
          "shape": [0],
          "dtype": "int32"
        },
        { "name": "PartitionedCall/zeros_2", "shape": [], "dtype": "int32" },
        { "name": "unknown_27", "shape": [96, 24], "dtype": "float32" },
        { "name": "unknown_28", "shape": [24, 96], "dtype": "float32" },
        {
          "name": "PartitionedCall/onnx_tf_prefix_Constant_66",
          "shape": [],
          "dtype": "float32"
        },
        {
          "name": "PartitionedCall/clip_by_value_2/Minimum/y",
          "shape": [],
          "dtype": "float32"
        },
        {
          "name": "PartitionedCall/clip_by_value_2/y",
          "shape": [],
          "dtype": "float32"
        },
        {
          "name": "ConstantFolding/PartitionedCall/onnx_tf_prefix_Div_70_recip",
          "shape": [],
          "dtype": "float32"
        },
        {
          "name": "PartitionedCall/onnx_tf_prefix_Concat_73",
          "shape": [4],
          "dtype": "int32"
        },
        {
          "name": "PartitionedCall/Where_3",
          "shape": [0, 1],
          "dtype": "int32"
        },
        { "name": "PartitionedCall/Cast_3", "shape": [1], "dtype": "int32" },
        {
          "name": "PartitionedCall/GatherV2_3",
          "shape": [0],
          "dtype": "int32"
        },
        { "name": "PartitionedCall/zeros_3", "shape": [], "dtype": "int32" },
        {
          "name": "PartitionedCall/ones_1",
          "shape": [1, 96, 8, 39],
          "dtype": "float32"
        },
        {
          "name": "PartitionedCall/onnx_tf_prefix_Constant_78",
          "shape": [],
          "dtype": "float32"
        },
        {
          "name": "PartitionedCall/clip_by_value_3/Minimum/y",
          "shape": [],
          "dtype": "float32"
        },
        {
          "name": "PartitionedCall/clip_by_value_3/y",
          "shape": [],
          "dtype": "float32"
        },
        {
          "name": "PartitionedCall/transpose_37/perm",
          "shape": [4],
          "dtype": "int32"
        },
        {
          "name": "PartitionedCall/split_10",
          "shape": [1, 1, 96, 40],
          "dtype": "float32"
        },
        {
          "name": "PartitionedCall/split_11",
          "shape": [1, 1, 40, 240],
          "dtype": "float32"
        },
        {
          "name": "PartitionedCall/transpose_41/perm",
          "shape": [4],
          "dtype": "int32"
        },
        {
          "name": "PartitionedCall/onnx_tf_prefix_Constant_86",
          "shape": [],
          "dtype": "float32"
        },
        {
          "name": "PartitionedCall/clip_by_value_4/Minimum/y",
          "shape": [],
          "dtype": "float32"
        },
        {
          "name": "PartitionedCall/clip_by_value_4/y",
          "shape": [],
          "dtype": "float32"
        },
        {
          "name": "PartitionedCall/Const_29",
          "shape": [4, 2],
          "dtype": "int32"
        },
        {
          "name": "PartitionedCall/transpose_43/perm",
          "shape": [4],
          "dtype": "int32"
        },
        {
          "name": "PartitionedCall/Reshape_4",
          "shape": [5, 5, 240, 1],
          "dtype": "float32"
        },
        {
          "name": "PartitionedCall/transpose_44/perm",
          "shape": [4],
          "dtype": "int32"
        },
        {
          "name": "ConstantFolding/PartitionedCall/split_12-folded-1",
          "shape": [2],
          "dtype": "int32"
        },
        {
          "name": "PartitionedCall/onnx_tf_prefix_Concat_102",
          "shape": [2],
          "dtype": "int32"
        },
        {
          "name": "PartitionedCall/Where_4",
          "shape": [0, 1],
          "dtype": "int32"
        },
        { "name": "PartitionedCall/Cast_4", "shape": [1], "dtype": "int32" },
        {
          "name": "PartitionedCall/GatherV2_4",
          "shape": [0],
          "dtype": "int32"
        },
        { "name": "PartitionedCall/zeros_4", "shape": [], "dtype": "int32" },
        { "name": "unknown_37", "shape": [240, 60], "dtype": "float32" },
        { "name": "unknown_38", "shape": [60, 240], "dtype": "float32" },
        {
          "name": "PartitionedCall/onnx_tf_prefix_Constant_107",
          "shape": [],
          "dtype": "float32"
        },
        {
          "name": "PartitionedCall/clip_by_value_5/Minimum/y",
          "shape": [],
          "dtype": "float32"
        },
        {
          "name": "PartitionedCall/clip_by_value_5/y",
          "shape": [],
          "dtype": "float32"
        },
        {
          "name": "ConstantFolding/PartitionedCall/onnx_tf_prefix_Div_111_recip",
          "shape": [],
          "dtype": "float32"
        },
        {
          "name": "PartitionedCall/onnx_tf_prefix_Concat_114",
          "shape": [4],
          "dtype": "int32"
        },
        {
          "name": "PartitionedCall/Where_5",
          "shape": [0, 1],
          "dtype": "int32"
        },
        { "name": "PartitionedCall/Cast_5", "shape": [1], "dtype": "int32" },
        {
          "name": "PartitionedCall/GatherV2_5",
          "shape": [0],
          "dtype": "int32"
        },
        { "name": "PartitionedCall/zeros_5", "shape": [], "dtype": "int32" },
        {
          "name": "PartitionedCall/ones_2",
          "shape": [1, 240, 8, 39],
          "dtype": "float32"
        },
        {
          "name": "PartitionedCall/onnx_tf_prefix_Constant_119",
          "shape": [],
          "dtype": "float32"
        },
        {
          "name": "PartitionedCall/clip_by_value_6/Minimum/y",
          "shape": [],
          "dtype": "float32"
        },
        {
          "name": "PartitionedCall/clip_by_value_6/y",
          "shape": [],
          "dtype": "float32"
        },
        {
          "name": "PartitionedCall/transpose_46/perm",
          "shape": [4],
          "dtype": "int32"
        },
        {
          "name": "PartitionedCall/split_13",
          "shape": [1, 1, 240, 40],
          "dtype": "float32"
        },
        {
          "name": "PartitionedCall/transpose_47/perm",
          "shape": [4],
          "dtype": "int32"
        },
        {
          "name": "PartitionedCall/transpose_49/perm",
          "shape": [4],
          "dtype": "int32"
        },
        {
          "name": "PartitionedCall/split_14",
          "shape": [1, 1, 40, 240],
          "dtype": "float32"
        },
        {
          "name": "PartitionedCall/transpose_50/perm",
          "shape": [4],
          "dtype": "int32"
        },
        {
          "name": "PartitionedCall/onnx_tf_prefix_Constant_128",
          "shape": [],
          "dtype": "float32"
        },
        {
          "name": "PartitionedCall/clip_by_value_7/Minimum/y",
          "shape": [],
          "dtype": "float32"
        },
        {
          "name": "PartitionedCall/clip_by_value_7/y",
          "shape": [],
          "dtype": "float32"
        },
        {
          "name": "PartitionedCall/Const_40",
          "shape": [4, 2],
          "dtype": "int32"
        },
        {
          "name": "PartitionedCall/transpose_52/perm",
          "shape": [4],
          "dtype": "int32"
        },
        {
          "name": "PartitionedCall/Reshape_5",
          "shape": [5, 5, 240, 1],
          "dtype": "float32"
        },
        {
          "name": "PartitionedCall/transpose_53/perm",
          "shape": [4],
          "dtype": "int32"
        },
        {
          "name": "ConstantFolding/PartitionedCall/split_15-folded-1",
          "shape": [2],
          "dtype": "int32"
        },
        {
          "name": "PartitionedCall/onnx_tf_prefix_Concat_144",
          "shape": [2],
          "dtype": "int32"
        },
        {
          "name": "PartitionedCall/Where_6",
          "shape": [0, 1],
          "dtype": "int32"
        },
        { "name": "PartitionedCall/Cast_6", "shape": [1], "dtype": "int32" },
        {
          "name": "PartitionedCall/GatherV2_6",
          "shape": [0],
          "dtype": "int32"
        },
        { "name": "PartitionedCall/zeros_6", "shape": [], "dtype": "int32" },
        { "name": "unknown_47", "shape": [240, 60], "dtype": "float32" },
        { "name": "unknown_48", "shape": [60, 240], "dtype": "float32" },
        {
          "name": "PartitionedCall/onnx_tf_prefix_Constant_149",
          "shape": [],
          "dtype": "float32"
        },
        {
          "name": "PartitionedCall/clip_by_value_8/Minimum/y",
          "shape": [],
          "dtype": "float32"
        },
        {
          "name": "PartitionedCall/clip_by_value_8/y",
          "shape": [],
          "dtype": "float32"
        },
        {
          "name": "ConstantFolding/PartitionedCall/onnx_tf_prefix_Div_153_recip",
          "shape": [],
          "dtype": "float32"
        },
        {
          "name": "PartitionedCall/onnx_tf_prefix_Concat_156",
          "shape": [4],
          "dtype": "int32"
        },
        {
          "name": "PartitionedCall/Where_7",
          "shape": [0, 1],
          "dtype": "int32"
        },
        { "name": "PartitionedCall/Cast_7", "shape": [1], "dtype": "int32" },
        {
          "name": "PartitionedCall/GatherV2_7",
          "shape": [0],
          "dtype": "int32"
        },
        { "name": "PartitionedCall/zeros_7", "shape": [], "dtype": "int32" },
        {
          "name": "PartitionedCall/ones_3",
          "shape": [1, 240, 8, 39],
          "dtype": "float32"
        },
        {
          "name": "PartitionedCall/onnx_tf_prefix_Constant_161",
          "shape": [],
          "dtype": "float32"
        },
        {
          "name": "PartitionedCall/clip_by_value_9/Minimum/y",
          "shape": [],
          "dtype": "float32"
        },
        {
          "name": "PartitionedCall/clip_by_value_9/y",
          "shape": [],
          "dtype": "float32"
        },
        {
          "name": "PartitionedCall/transpose_55/perm",
          "shape": [4],
          "dtype": "int32"
        },
        {
          "name": "PartitionedCall/split_16",
          "shape": [1, 1, 240, 40],
          "dtype": "float32"
        },
        {
          "name": "PartitionedCall/transpose_56/perm",
          "shape": [4],
          "dtype": "int32"
        },
        {
          "name": "PartitionedCall/transpose_58/perm",
          "shape": [4],
          "dtype": "int32"
        },
        {
          "name": "PartitionedCall/split_17",
          "shape": [1, 1, 40, 120],
          "dtype": "float32"
        },
        {
          "name": "PartitionedCall/transpose_59/perm",
          "shape": [4],
          "dtype": "int32"
        },
        {
          "name": "PartitionedCall/onnx_tf_prefix_Constant_170",
          "shape": [],
          "dtype": "float32"
        },
        {
          "name": "PartitionedCall/clip_by_value_10/Minimum/y",
          "shape": [],
          "dtype": "float32"
        },
        {
          "name": "PartitionedCall/clip_by_value_10/y",
          "shape": [],
          "dtype": "float32"
        },
        {
          "name": "PartitionedCall/Const_51",
          "shape": [4, 2],
          "dtype": "int32"
        },
        {
          "name": "PartitionedCall/transpose_61/perm",
          "shape": [4],
          "dtype": "int32"
        },
        {
          "name": "PartitionedCall/Reshape_6",
          "shape": [5, 5, 120, 1],
          "dtype": "float32"
        },
        {
          "name": "PartitionedCall/transpose_62/perm",
          "shape": [4],
          "dtype": "int32"
        },
        {
          "name": "ConstantFolding/PartitionedCall/split_18-folded-1",
          "shape": [2],
          "dtype": "int32"
        },
        {
          "name": "PartitionedCall/onnx_tf_prefix_Concat_186",
          "shape": [2],
          "dtype": "int32"
        },
        {
          "name": "PartitionedCall/Where_8",
          "shape": [0, 1],
          "dtype": "int32"
        },
        { "name": "PartitionedCall/Cast_8", "shape": [1], "dtype": "int32" },
        {
          "name": "PartitionedCall/GatherV2_8",
          "shape": [0],
          "dtype": "int32"
        },
        { "name": "PartitionedCall/zeros_8", "shape": [], "dtype": "int32" },
        { "name": "unknown_57", "shape": [120, 30], "dtype": "float32" },
        { "name": "unknown_58", "shape": [30, 120], "dtype": "float32" },
        {
          "name": "PartitionedCall/onnx_tf_prefix_Constant_191",
          "shape": [],
          "dtype": "float32"
        },
        {
          "name": "PartitionedCall/clip_by_value_11/Minimum/y",
          "shape": [],
          "dtype": "float32"
        },
        {
          "name": "PartitionedCall/clip_by_value_11/y",
          "shape": [],
          "dtype": "float32"
        },
        {
          "name": "ConstantFolding/PartitionedCall/onnx_tf_prefix_Div_195_recip",
          "shape": [],
          "dtype": "float32"
        },
        {
          "name": "PartitionedCall/onnx_tf_prefix_Concat_198",
          "shape": [4],
          "dtype": "int32"
        },
        {
          "name": "PartitionedCall/Where_9",
          "shape": [0, 1],
          "dtype": "int32"
        },
        { "name": "PartitionedCall/Cast_9", "shape": [1], "dtype": "int32" },
        {
          "name": "PartitionedCall/GatherV2_9",
          "shape": [0],
          "dtype": "int32"
        },
        { "name": "PartitionedCall/zeros_9", "shape": [], "dtype": "int32" },
        {
          "name": "PartitionedCall/ones_4",
          "shape": [1, 120, 8, 39],
          "dtype": "float32"
        },
        {
          "name": "PartitionedCall/onnx_tf_prefix_Constant_203",
          "shape": [],
          "dtype": "float32"
        },
        {
          "name": "PartitionedCall/clip_by_value_12/Minimum/y",
          "shape": [],
          "dtype": "float32"
        },
        {
          "name": "PartitionedCall/clip_by_value_12/y",
          "shape": [],
          "dtype": "float32"
        },
        {
          "name": "PartitionedCall/transpose_64/perm",
          "shape": [4],
          "dtype": "int32"
        },
        {
          "name": "PartitionedCall/split_19",
          "shape": [1, 1, 120, 48],
          "dtype": "float32"
        },
        {
          "name": "PartitionedCall/split_20",
          "shape": [1, 1, 48, 144],
          "dtype": "float32"
        },
        {
          "name": "PartitionedCall/transpose_68/perm",
          "shape": [4],
          "dtype": "int32"
        },
        {
          "name": "PartitionedCall/onnx_tf_prefix_Constant_211",
          "shape": [],
          "dtype": "float32"
        },
        {
          "name": "PartitionedCall/clip_by_value_13/Minimum/y",
          "shape": [],
          "dtype": "float32"
        },
        {
          "name": "PartitionedCall/clip_by_value_13/y",
          "shape": [],
          "dtype": "float32"
        },
        {
          "name": "PartitionedCall/Const_62",
          "shape": [4, 2],
          "dtype": "int32"
        },
        {
          "name": "PartitionedCall/transpose_70/perm",
          "shape": [4],
          "dtype": "int32"
        },
        {
          "name": "PartitionedCall/Reshape_7",
          "shape": [5, 5, 144, 1],
          "dtype": "float32"
        },
        {
          "name": "PartitionedCall/transpose_71/perm",
          "shape": [4],
          "dtype": "int32"
        },
        {
          "name": "ConstantFolding/PartitionedCall/split_21-folded-1",
          "shape": [2],
          "dtype": "int32"
        },
        {
          "name": "PartitionedCall/onnx_tf_prefix_Concat_227",
          "shape": [2],
          "dtype": "int32"
        },
        {
          "name": "PartitionedCall/Where_10",
          "shape": [0, 1],
          "dtype": "int32"
        },
        { "name": "PartitionedCall/Cast_10", "shape": [1], "dtype": "int32" },
        {
          "name": "PartitionedCall/GatherV2_10",
          "shape": [0],
          "dtype": "int32"
        },
        { "name": "PartitionedCall/zeros_10", "shape": [], "dtype": "int32" },
        { "name": "unknown_67", "shape": [144, 36], "dtype": "float32" },
        { "name": "unknown_68", "shape": [36, 144], "dtype": "float32" },
        {
          "name": "PartitionedCall/onnx_tf_prefix_Constant_232",
          "shape": [],
          "dtype": "float32"
        },
        {
          "name": "PartitionedCall/clip_by_value_14/Minimum/y",
          "shape": [],
          "dtype": "float32"
        },
        {
          "name": "PartitionedCall/clip_by_value_14/y",
          "shape": [],
          "dtype": "float32"
        },
        {
          "name": "ConstantFolding/PartitionedCall/onnx_tf_prefix_Div_236_recip",
          "shape": [],
          "dtype": "float32"
        },
        {
          "name": "PartitionedCall/onnx_tf_prefix_Concat_239",
          "shape": [4],
          "dtype": "int32"
        },
        {
          "name": "PartitionedCall/Where_11",
          "shape": [0, 1],
          "dtype": "int32"
        },
        { "name": "PartitionedCall/Cast_11", "shape": [1], "dtype": "int32" },
        {
          "name": "PartitionedCall/GatherV2_11",
          "shape": [0],
          "dtype": "int32"
        },
        { "name": "PartitionedCall/zeros_11", "shape": [], "dtype": "int32" },
        {
          "name": "PartitionedCall/ones_5",
          "shape": [1, 144, 8, 39],
          "dtype": "float32"
        },
        {
          "name": "PartitionedCall/onnx_tf_prefix_Constant_244",
          "shape": [],
          "dtype": "float32"
        },
        {
          "name": "PartitionedCall/clip_by_value_15/Minimum/y",
          "shape": [],
          "dtype": "float32"
        },
        {
          "name": "PartitionedCall/clip_by_value_15/y",
          "shape": [],
          "dtype": "float32"
        },
        {
          "name": "PartitionedCall/transpose_73/perm",
          "shape": [4],
          "dtype": "int32"
        },
        {
          "name": "PartitionedCall/split_22",
          "shape": [1, 1, 144, 48],
          "dtype": "float32"
        },
        {
          "name": "PartitionedCall/transpose_74/perm",
          "shape": [4],
          "dtype": "int32"
        },
        {
          "name": "PartitionedCall/transpose_76/perm",
          "shape": [4],
          "dtype": "int32"
        },
        {
          "name": "PartitionedCall/split_23",
          "shape": [1, 1, 48, 288],
          "dtype": "float32"
        },
        {
          "name": "PartitionedCall/transpose_77/perm",
          "shape": [4],
          "dtype": "int32"
        },
        {
          "name": "PartitionedCall/onnx_tf_prefix_Constant_253",
          "shape": [],
          "dtype": "float32"
        },
        {
          "name": "PartitionedCall/clip_by_value_16/Minimum/y",
          "shape": [],
          "dtype": "float32"
        },
        {
          "name": "PartitionedCall/clip_by_value_16/y",
          "shape": [],
          "dtype": "float32"
        },
        {
          "name": "PartitionedCall/Const_73",
          "shape": [4, 2],
          "dtype": "int32"
        },
        {
          "name": "PartitionedCall/transpose_79/perm",
          "shape": [4],
          "dtype": "int32"
        },
        {
          "name": "PartitionedCall/Reshape_8",
          "shape": [5, 5, 288, 1],
          "dtype": "float32"
        },
        {
          "name": "PartitionedCall/transpose_80/perm",
          "shape": [4],
          "dtype": "int32"
        },
        {
          "name": "ConstantFolding/PartitionedCall/split_24-folded-1",
          "shape": [2],
          "dtype": "int32"
        },
        {
          "name": "PartitionedCall/onnx_tf_prefix_Concat_269",
          "shape": [2],
          "dtype": "int32"
        },
        {
          "name": "PartitionedCall/Where_12",
          "shape": [0, 1],
          "dtype": "int32"
        },
        { "name": "PartitionedCall/Cast_12", "shape": [1], "dtype": "int32" },
        {
          "name": "PartitionedCall/GatherV2_12",
          "shape": [0],
          "dtype": "int32"
        },
        { "name": "PartitionedCall/zeros_12", "shape": [], "dtype": "int32" },
        { "name": "unknown_77", "shape": [288, 72], "dtype": "float32" },
        { "name": "unknown_78", "shape": [72, 288], "dtype": "float32" },
        {
          "name": "PartitionedCall/onnx_tf_prefix_Constant_274",
          "shape": [],
          "dtype": "float32"
        },
        {
          "name": "PartitionedCall/clip_by_value_17/Minimum/y",
          "shape": [],
          "dtype": "float32"
        },
        {
          "name": "PartitionedCall/clip_by_value_17/y",
          "shape": [],
          "dtype": "float32"
        },
        {
          "name": "ConstantFolding/PartitionedCall/onnx_tf_prefix_Div_278_recip",
          "shape": [],
          "dtype": "float32"
        },
        {
          "name": "PartitionedCall/onnx_tf_prefix_Concat_281",
          "shape": [4],
          "dtype": "int32"
        },
        {
          "name": "PartitionedCall/Where_13",
          "shape": [0, 1],
          "dtype": "int32"
        },
        { "name": "PartitionedCall/Cast_13", "shape": [1], "dtype": "int32" },
        {
          "name": "PartitionedCall/GatherV2_13",
          "shape": [0],
          "dtype": "int32"
        },
        { "name": "PartitionedCall/zeros_13", "shape": [], "dtype": "int32" },
        {
          "name": "PartitionedCall/ones_6",
          "shape": [1, 288, 4, 20],
          "dtype": "float32"
        },
        {
          "name": "PartitionedCall/onnx_tf_prefix_Constant_286",
          "shape": [],
          "dtype": "float32"
        },
        {
          "name": "PartitionedCall/clip_by_value_18/Minimum/y",
          "shape": [],
          "dtype": "float32"
        },
        {
          "name": "PartitionedCall/clip_by_value_18/y",
          "shape": [],
          "dtype": "float32"
        },
        {
          "name": "PartitionedCall/transpose_82/perm",
          "shape": [4],
          "dtype": "int32"
        },
        {
          "name": "PartitionedCall/split_25",
          "shape": [1, 1, 288, 96],
          "dtype": "float32"
        },
        {
          "name": "PartitionedCall/split_26",
          "shape": [1, 1, 96, 576],
          "dtype": "float32"
        },
        {
          "name": "PartitionedCall/transpose_86/perm",
          "shape": [4],
          "dtype": "int32"
        },
        {
          "name": "PartitionedCall/onnx_tf_prefix_Constant_294",
          "shape": [],
          "dtype": "float32"
        },
        {
          "name": "PartitionedCall/clip_by_value_19/Minimum/y",
          "shape": [],
          "dtype": "float32"
        },
        {
          "name": "PartitionedCall/clip_by_value_19/y",
          "shape": [],
          "dtype": "float32"
        },
        {
          "name": "PartitionedCall/Const_84",
          "shape": [4, 2],
          "dtype": "int32"
        },
        {
          "name": "PartitionedCall/transpose_88/perm",
          "shape": [4],
          "dtype": "int32"
        },
        {
          "name": "PartitionedCall/Reshape_9",
          "shape": [5, 5, 576, 1],
          "dtype": "float32"
        },
        {
          "name": "PartitionedCall/transpose_89/perm",
          "shape": [4],
          "dtype": "int32"
        },
        {
          "name": "ConstantFolding/PartitionedCall/split_27-folded-1",
          "shape": [2],
          "dtype": "int32"
        },
        {
          "name": "PartitionedCall/onnx_tf_prefix_Concat_310",
          "shape": [2],
          "dtype": "int32"
        },
        {
          "name": "PartitionedCall/Where_14",
          "shape": [0, 1],
          "dtype": "int32"
        },
        { "name": "PartitionedCall/Cast_14", "shape": [1], "dtype": "int32" },
        {
          "name": "PartitionedCall/GatherV2_14",
          "shape": [0],
          "dtype": "int32"
        },
        { "name": "PartitionedCall/zeros_14", "shape": [], "dtype": "int32" },
        { "name": "unknown_87", "shape": [576, 144], "dtype": "float32" },
        { "name": "unknown_88", "shape": [144, 576], "dtype": "float32" },
        {
          "name": "PartitionedCall/onnx_tf_prefix_Constant_315",
          "shape": [],
          "dtype": "float32"
        },
        {
          "name": "PartitionedCall/clip_by_value_20/Minimum/y",
          "shape": [],
          "dtype": "float32"
        },
        {
          "name": "PartitionedCall/clip_by_value_20/y",
          "shape": [],
          "dtype": "float32"
        },
        {
          "name": "ConstantFolding/PartitionedCall/onnx_tf_prefix_Div_319_recip",
          "shape": [],
          "dtype": "float32"
        },
        {
          "name": "PartitionedCall/onnx_tf_prefix_Concat_322",
          "shape": [4],
          "dtype": "int32"
        },
        {
          "name": "PartitionedCall/Where_15",
          "shape": [0, 1],
          "dtype": "int32"
        },
        { "name": "PartitionedCall/Cast_15", "shape": [1], "dtype": "int32" },
        {
          "name": "PartitionedCall/GatherV2_15",
          "shape": [0],
          "dtype": "int32"
        },
        { "name": "PartitionedCall/zeros_15", "shape": [], "dtype": "int32" },
        {
          "name": "PartitionedCall/ones_7",
          "shape": [1, 576, 4, 20],
          "dtype": "float32"
        },
        {
          "name": "PartitionedCall/onnx_tf_prefix_Constant_327",
          "shape": [],
          "dtype": "float32"
        },
        {
          "name": "PartitionedCall/clip_by_value_21/Minimum/y",
          "shape": [],
          "dtype": "float32"
        },
        {
          "name": "PartitionedCall/clip_by_value_21/y",
          "shape": [],
          "dtype": "float32"
        },
        {
          "name": "PartitionedCall/transpose_91/perm",
          "shape": [4],
          "dtype": "int32"
        },
        {
          "name": "PartitionedCall/split_28",
          "shape": [1, 1, 576, 96],
          "dtype": "float32"
        },
        {
          "name": "PartitionedCall/transpose_92/perm",
          "shape": [4],
          "dtype": "int32"
        },
        {
          "name": "PartitionedCall/transpose_94/perm",
          "shape": [4],
          "dtype": "int32"
        },
        {
          "name": "PartitionedCall/split_29",
          "shape": [1, 1, 96, 576],
          "dtype": "float32"
        },
        {
          "name": "PartitionedCall/transpose_95/perm",
          "shape": [4],
          "dtype": "int32"
        },
        {
          "name": "PartitionedCall/onnx_tf_prefix_Constant_336",
          "shape": [],
          "dtype": "float32"
        },
        {
          "name": "PartitionedCall/clip_by_value_22/Minimum/y",
          "shape": [],
          "dtype": "float32"
        },
        {
          "name": "PartitionedCall/clip_by_value_22/y",
          "shape": [],
          "dtype": "float32"
        },
        {
          "name": "PartitionedCall/Const_95",
          "shape": [4, 2],
          "dtype": "int32"
        },
        {
          "name": "PartitionedCall/transpose_97/perm",
          "shape": [4],
          "dtype": "int32"
        },
        {
          "name": "PartitionedCall/Reshape_10",
          "shape": [5, 5, 576, 1],
          "dtype": "float32"
        },
        {
          "name": "PartitionedCall/transpose_98/perm",
          "shape": [4],
          "dtype": "int32"
        },
        {
          "name": "ConstantFolding/PartitionedCall/split_30-folded-1",
          "shape": [2],
          "dtype": "int32"
        },
        {
          "name": "PartitionedCall/onnx_tf_prefix_Concat_352",
          "shape": [2],
          "dtype": "int32"
        },
        {
          "name": "PartitionedCall/Where_16",
          "shape": [0, 1],
          "dtype": "int32"
        },
        { "name": "PartitionedCall/Cast_16", "shape": [1], "dtype": "int32" },
        {
          "name": "PartitionedCall/GatherV2_16",
          "shape": [0],
          "dtype": "int32"
        },
        { "name": "PartitionedCall/zeros_16", "shape": [], "dtype": "int32" },
        { "name": "unknown_97", "shape": [576, 144], "dtype": "float32" },
        { "name": "unknown_98", "shape": [144, 576], "dtype": "float32" },
        {
          "name": "PartitionedCall/onnx_tf_prefix_Constant_357",
          "shape": [],
          "dtype": "float32"
        },
        {
          "name": "PartitionedCall/clip_by_value_23/Minimum/y",
          "shape": [],
          "dtype": "float32"
        },
        {
          "name": "PartitionedCall/clip_by_value_23/y",
          "shape": [],
          "dtype": "float32"
        },
        {
          "name": "ConstantFolding/PartitionedCall/onnx_tf_prefix_Div_361_recip",
          "shape": [],
          "dtype": "float32"
        },
        {
          "name": "PartitionedCall/onnx_tf_prefix_Concat_364",
          "shape": [4],
          "dtype": "int32"
        },
        {
          "name": "PartitionedCall/Where_17",
          "shape": [0, 1],
          "dtype": "int32"
        },
        { "name": "PartitionedCall/Cast_17", "shape": [1], "dtype": "int32" },
        {
          "name": "PartitionedCall/GatherV2_17",
          "shape": [0],
          "dtype": "int32"
        },
        { "name": "PartitionedCall/zeros_17", "shape": [], "dtype": "int32" },
        {
          "name": "PartitionedCall/ones_8",
          "shape": [1, 576, 4, 20],
          "dtype": "float32"
        },
        {
          "name": "PartitionedCall/onnx_tf_prefix_Constant_369",
          "shape": [],
          "dtype": "float32"
        },
        {
          "name": "PartitionedCall/clip_by_value_24/Minimum/y",
          "shape": [],
          "dtype": "float32"
        },
        {
          "name": "PartitionedCall/clip_by_value_24/y",
          "shape": [],
          "dtype": "float32"
        },
        {
          "name": "PartitionedCall/transpose_100/perm",
          "shape": [4],
          "dtype": "int32"
        },
        {
          "name": "PartitionedCall/split_31",
          "shape": [1, 1, 576, 96],
          "dtype": "float32"
        },
        {
          "name": "PartitionedCall/transpose_101/perm",
          "shape": [4],
          "dtype": "int32"
        },
        {
          "name": "PartitionedCall/transpose_103/perm",
          "shape": [4],
          "dtype": "int32"
        },
        {
          "name": "PartitionedCall/split_32",
          "shape": [1, 1, 96, 576],
          "dtype": "float32"
        },
        {
          "name": "PartitionedCall/transpose_104/perm",
          "shape": [4],
          "dtype": "int32"
        },
        {
          "name": "ConstantFolding/PartitionedCall/split_33-folded-1",
          "shape": [2],
          "dtype": "int32"
        },
        {
          "name": "PartitionedCall/transpose_106/perm",
          "shape": [4],
          "dtype": "int32"
        },
        {
          "name": "PartitionedCall/split_34",
          "shape": [1, 1, 576, 60],
          "dtype": "float32"
        },
        {
          "name": "PartitionedCall/transpose_107/perm",
          "shape": [4],
          "dtype": "int32"
        }
      ]
    }
  ]
}
